data/optimization/optimization_partial/optimization_SGD_N1000_T300/optimization_6_params.npy (npy, 528 bytes, 1 tensors)

array f8 [5, 5, 2]
00000000: 0000 0040 f165 f0bf 0000 0060 8917 ff3f
00000010: 0000 00a0 2562 f0bf 0000 0040 4b1b ff3f
00000020: 0000 0040 456f f0bf 0000 00a0 1514 ff3f
00000030: 0000 00c0 af68 f0bf 0000 00e0 db17 ff3f
00000040: 0000 00c0 9278 f0bf 0000 0060 db19 ff3f
00000050: 0000 0040 f630 efbf 0000 00e0 c7f9 ff3f
00000060: 0000 0020 f01c efbf 0000 0040 39fe ff3f
00000070: 0000 0000 79df eebf 0000 0080 b8f9 ff3f
00000080: 0000 0000 c1d7 eebf 0000 0080 f5fb ff3f
00000090: 0000 0080 9024 efbf 0000 00a0 4afa ff3f
000000a0: 0000 0080 1719 f0bf 0000 00c0 166d ff3f
000000b0: 0000 00e0 c029 f0bf 0000 0060 916a ff3f
000000c0: 0000 0060 ba23 f0bf 0000 0020 ba69 ff3f
000000d0: 0000 00a0 5025 f0bf 0000 00c0 cd70 ff3f
000000e0: 0000 0060 561a f0bf 0000 00e0 a16a ff3f
000000f0: 0000 00a0 7c0c f0bf 0000 00e0 0ac4 ff3f
00000100: 0000 0060 aef6 efbf 0000 00a0 6ac4 ff3f
00000110: 0000 00a0 87f6 efbf 0000 00c0 7dc4 ff3f
00000120: 0000 0060 b6fa efbf 0000 0040 86c3 ff3f
00000130: 0000 00a0 2dea efbf 0000 00c0 0cc5 ff3f
00000140: 0000 00e0 a7c8 efbf 0000 0020 c417 0040
00000150: 0000 0080 48b7 efbf 0000 00e0 3917 0040
00000160: 0000 00c0 00b9 efbf 0000 00e0 c216 0040
00000170: 0000 00e0 89a6 efbf 0000 0060 3017 0040
00000180: 0000 0060 5bb3 efbf 0000 00c0 0517 0040
-1.024888277053833 1.9432462453842163 -1.0239616632461548 1.9441635608673096 -1.0271656513214111 1.9424034357070923 -1.0255582332611084 1.9433249235153198
-1.0294368267059326 1.9438127279281616 -0.9747267961502075 1.9984816312789917 -0.9722824692726135 1.9995663166046143 -0.9647793769836426 1.998466968536377
-0.9638371467590332 1.9990134239196777 -0.9732134342193604 1.9986063241958618 -1.0061259269714355 1.9641330242156982 -1.0101937055587769 1.9635175466537476
-1.0087226629257202 1.9633122682571411 -1.0091100931167603 1.9650399684906006 -1.0064300298690796 1.9635332822799683 -1.0030485391616821 1.985361933708191
-0.9988624453544617 1.9854532480239868 -0.9988439679145813 1.985471487045288 -0.9993545413017273 1.9852354526519775 -0.997336208820343 1.9856078624725342
-0.9932441115379333 2.0116045475006104 -0.9911234378814697 2.011340856552124 -0.9913333654403687 2.0111138820648193 -0.9890794157981873 2.0113227367401123
-0.9906441569328308 2.0112414360046387
