data/optimization/optimization_partial/optimization_SGD_N1000_T300/optimization_16_params.npy (npy, 528 bytes, 1 tensors)

array f8 [5, 5, 2]
00000000: 0000 0020 7e51 efbf 0000 0000 5321 0040
00000010: 0000 00c0 be8e efbf 0000 0080 4c22 0040
00000020: 0000 00a0 b47d efbf 0000 00e0 0222 0040
00000030: 0000 00c0 b66c efbf 0000 0080 ae20 0040
00000040: 0000 00e0 618e efbf 0000 0040 9a21 0040
00000050: 0000 0020 3745 f0bf 0000 0060 041a ff3f
00000060: 0000 0040 e547 f0bf 0000 00e0 ec13 ff3f
00000070: 0000 0080 b048 f0bf 0000 0060 6112 ff3f
00000080: 0000 0060 5040 f0bf 0000 0020 1115 ff3f
00000090: 0000 00a0 7e4a f0bf 0000 0000 3d14 ff3f
000000a0: 0000 00e0 bbf0 efbf 0000 00a0 0c46 0040
000000b0: 0000 00e0 09ef efbf 0000 00e0 a146 0040
000000c0: 0000 0000 8f09 f0bf 0000 0020 1e46 0040
000000d0: 0000 0040 52f0 efbf 0000 0020 5745 0040
000000e0: 0000 0080 ad09 f0bf 0000 0060 fb45 0040
000000f0: 0000 00c0 ce31 f0bf 0000 00e0 a710 0040
00000100: 0000 00a0 6b23 f0bf 0000 0060 4c0f 0040
00000110: 0000 0000 9221 f0bf 0000 0040 6f0f 0040
00000120: 0000 0080 9016 f0bf 0000 0040 2710 0040
00000130: 0000 0060 1522 f0bf 0000 0020 c20f 0040
00000140: 0000 00a0 0c5c f0bf 0000 00c0 6ecb ff3f
00000150: 0000 0060 fa54 f0bf 0000 00e0 faca ff3f
00000160: 0000 0040 a565 f0bf 0000 0040 55ce ff3f
00000170: 0000 00c0 bb5e f0bf 0000 0080 0bca ff3f
00000180: 0000 0060 194b f0bf 0000 0060 48cb ff3f
-0.9786978363990784 2.0162715911865234 -0.9861749410629272 2.01674747467041 -0.9840949177742004 2.0166070461273193 -0.9820207357406616 2.015957832336426
-0.9861306548118591 2.0164074897766113 -1.016898274421692 1.9438518285751343 -1.0175526142120361 1.9423645734786987 -1.0177464485168457 1.94198739528656
-1.0157016515731812 1.9426432847976685 -1.018187165260315 1.9424409866333008 -0.9981364607810974 2.0342037677764893 -0.9979295134544373 2.0344884395599365
-1.002333641052246 2.0342371463775635 -0.9980860948562622 2.033857583999634 -1.0023627281188965 2.0341708660125732 -1.012160062789917 2.0081326961517334
-1.0086475610733032 2.007469892501831 -1.0081958770751953 2.0075364112854004 -1.0055088996887207 2.007887363433838 -1.0083211660385132 2.0076944828033447
-1.0224729776382446 1.987166166305542 -1.0207465887069702 1.9870556592941284 -1.0248157978057861 1.9878742694854736 -1.0231282711029053 1.9868273735046387
-1.0183347463607788 1.98712956905365
