data/optimization/optimization_partial/optimization_SGD_N1000_T300/optimization_14_params.npy (npy, 528 bytes, 1 tensors)

array f8 [5, 5, 2]
0	0xbff03bf700000000	-1.0146398544311523
1	0x3fff7dad20000000	1.9681826829910278
2	0xbff03cfb20000000	-1.0148879289627075
3	0x3fff7b4d60000000	1.967603087425232
4	0xbff048eec0000000	-1.017805814743042
5	0x3fff7bd280000000	1.9677300453186035
6	0xbff02d1ac0000000	-1.0110118389129639
7	0x3fff792640000000	1.9670774936676025
8	0xbff03cda60000000	-1.0148566961288452
9	0x3fff79a060000000	1.9671939611434937
10	0xbfee9af740000000	-0.9564167261123657
11	0x3fffe05960000000	1.9922727346420288
12	0xbfeea1c1e0000000	-0.9572457671165466
13	0x3fffe01b80000000	1.9922137260437012
14	0xbfee9e76c0000000	-0.9568437337875366
15	0x3fffded6c0000000	1.9919040203094482
16	0xbfeeb09120000000	-0.9590535759925842
17	0x3fffdfb880000000	1.992119312286377
18	0xbfeea791c0000000	-0.9579552412033081
19	0x3fffe1a1a0000000	1.9925857782363892
20	0xbfef66cce0000000	-0.9812988638877869
21	0x400005f8e0000000	2.002916097640991
22	0xbfef4b6100000000	-0.9779515266418457
23	0x40000677e0000000	2.0031583309173584
24	0xbfef3d1d20000000	-0.9762101769447327
25	0x4000073fe0000000	2.003539800643921
26	0xbfef4ab2c0000000	-0.9778684377670288
27	0x40000764a0000000	2.0036098957061768
28	0xbfef4dc360000000	-0.9782425761222839
29	0x400007b480000000	2.0037622451782227
30	0xbff01e44e0000000	-1.0073899030685425
31	0x40000ee040000000	2.007263660430908
32	0xbff01cc6c0000000	-1.0070254802703857
33	0x40000dd4c0000000	2.006753444671631
34	0xbff0155ec0000000	-1.0052173137664795
35	0x40000d1b20000000	2.006399393081665
36	0xbff00bc8c0000000	-1.0028769969940186
37	0x40000e8d20000000	2.0071051120758057
38	0xbff00922a0000000	-1.0022302865982056
39	0x40000e6e40000000	2.0070462226867676
40	0xbfefe29400000000	-0.9964084625244141
41	0x4000709660000000	2.054974317550659
42	0xbfefd18d40000000	-0.9943300485610962
43	0x400070d260000000	2.055088758468628
44	0xbfefcfa8a0000000	-0.994098961353302
45	0x4000707560000000	2.0549113750457764
46	0xbfeffa7360000000	-0.9993225932121277
47	0x4000708240000000	2.054935932159424
48	0xbfefd9bc80000000	-0.9953291416168213
49	0x40006f99a0000000	2.054492235183716
