data/optimization/optimization_partial/optimization_SGD_N100_T100/optimization_2_params.npy (npy, 528 bytes, 1 tensors)

array f8 [5, 5, 2]
0	0xbff1d7cd60000000	-1.115186095237732
1	0x3ff50dd280000000	1.3158745765686035
2	0xbff1284660000000	-1.072332739830017
3	0x3ff516b440000000	1.3180429935455322
4	0xbff1608480000000	-1.0860638618469238
5	0x3ff53e6680000000	1.3277344703674316
6	0xbff159f080000000	-1.0844578742980957
7	0x3ff53eb020000000	1.327804684638977
8	0xbff112cce0000000	-1.0670899152755737
9	0x3ff5202400000000	1.3203468322753906
10	0xbff106c1c0000000	-1.0641496181488037
11	0x3ff9fe5de0000000	1.6246012449264526
12	0xbff0ecaac0000000	-1.0577800273895264
13	0x3ffa51fc20000000	1.645015835762024
14	0xbff10eaae0000000	-1.066080927848816
15	0x3ffa034b60000000	1.6258043050765991
16	0xbff13e0f80000000	-1.0776515007019043
17	0x3ff9c2b440000000	1.6100351810455322
18	0xbff120f420000000	-1.0705453157424927
19	0x3ff9f56c60000000	1.6224178075790405
20	0xbfee06c580000000	-0.9383265972137451
21	0x3ffc182ce0000000	1.7559021711349487
22	0xbfee368100000000	-0.9441533088684082
23	0x3ffbba82e0000000	1.7330349683761597
24	0xbfedf28180000000	-0.9358527660369873
25	0x3ffbbaa3c0000000	1.7330663204193115
26	0xbfedb0ef40000000	-0.9278484582901001
27	0x3ffb746420000000	1.7159157991409302
28	0xbfee91ed60000000	-0.9553133845329285
29	0x3ffbc52dc0000000	1.7356393337249756
30	0xbff04df980000000	-1.0190367698669434
31	0x3ffb3d27c0000000	1.7024304866790771
32	0xbff03b4c80000000	-1.014477252960205
33	0x3ffb1522c0000000	1.6926600933074951
34	0xbff055a2e0000000	-1.0209072828292847
35	0x3ffb293f40000000	1.6975700855255127
36	0xbff0198440000000	-1.0062296390533447
37	0x3ffb31e780000000	1.699683666229248
38	0xbff00d1340000000	-1.0031921863555908
39	0x3ffb467fe0000000	1.7047117948532104
40	0xbff7e353e0000000	-1.4929999113082886
41	0x3ffe1bcf40000000	1.8817894458770752
42	0xbff8118820000000	-1.5042802095413208
43	0x3ffd613e60000000	1.8362411260604858
44	0xbff7e89400000000	-1.4942817687988281
45	0x3ffd653760000000	1.837211012840271
46	0xbff7c9fe20000000	-1.4868146181106567
47	0x3ffd3c95c0000000	1.8272912502288818
48	0xbff7aef1a0000000	-1.4802109003067017
49	0x3ffd968100000000	1.8492441177368164
