data/optimization/optimization_partial/optimization_SGD_N100_T100/optimization_19_params.npy (npy, 528 bytes, 1 tensors)

array f8 [5, 5, 2]
0	0xbfe8014560000000	-0.7501551508903503
1	0x400145e260000000	2.159123182296753
2	0xbfe81ee020000000	-0.7537689805030823
3	0x40016b87c0000000	2.1775050163269043
4	0xbfe79c76a0000000	-0.7378495335578918
5	0x40014c1640000000	2.16215181350708
6	0xbfe8021760000000	-0.750255286693573
7	0x40014a2e40000000	2.1612210273742676
8	0xbfe82c14c0000000	-0.7553809881210327
9	0x400136dee0000000	2.151792287826538
10	0xbfeffb36a0000000	-0.9994156956672668
11	0x3ffec30300000000	1.9226102828979492
12	0xbff012cee0000000	-1.0045918226242065
13	0x3ffef2e840000000	1.9343035221099854
14	0xbff0497fe0000000	-1.0179442167282104
15	0x3ffed721a0000000	1.9275223016738892
16	0xbff05cf440000000	-1.0226938724517822
17	0x3ffefd3600000000	1.936819076538086
18	0xbfeff42ae0000000	-0.998555600643158
19	0x3ffee156e0000000	1.9300144910812378
20	0xc000f7cba0000000	-2.1209938526153564
21	0x3ff08cee80000000	1.034407138824463
22	0xc000bfbdc0000000	-2.093623638153076
23	0x3ff00c9e00000000	1.0030803680419922
24	0xc00154e380000000	-2.166449546813965
25	0x3ff193d440000000	1.0985910892486572
26	0xc0049bdca0000000	-2.5761044025421143
27	0x3ff9d6e560000000	1.6149648427963257
28	0xc000ee1a60000000	-2.1162612438201904
29	0x3ff0512220000000	1.0198079347610474
30	0xbff1e1ae60000000	-1.1175979375839233
31	0x4000e8a020000000	2.113586664199829
32	0xbff22d22e0000000	-1.1360195875167847
33	0x4000d69d20000000	2.1047918796539307
34	0xbff26cefe0000000	-1.151595950126648
35	0x4000d18820000000	2.1023104190826416
36	0xbff1be47a0000000	-1.1089550256729126
37	0x4000d77800000000	2.1052093505859375
38	0xbff1f6c400000000	-1.1227455139160156
39	0x4000ced8e0000000	2.100999593734741
40	0xbfedbe1140000000	-0.929451584815979
41	0x3ffce44760000000	1.8057321310043335
42	0xbfee460040000000	-0.9460450410842896
43	0x3ffd0b46a0000000	1.8152529001235962
44	0xbfeea190c0000000	-0.9572223424911499
45	0x3ffd07f220000000	1.8144398927688599
46	0xbfee539240000000	-0.9477015733718872
47	0x3ffd0a3bc0000000	1.8149983882904053
48	0xbfee050660000000	-0.9381133913993835
49	0x3ffccf5320000000	1.8006163835525513
