data/optimization/optimization_partial/optimization_SGD_N100_T100/optimization_4_params.npy (npy, 528 bytes, 1 tensors)

array f8 [5, 5, 2]
00000000: 0000 00c0 fe20 06c0 0000 00c0 655d e33f
00000010: 0000 00a0 2914 14c0 0000 0060 3a3b 0540
00000020: 0000 0040 99f9 13c0 0000 0040 8e14 0540
00000030: 0000 00e0 ca55 0ac0 0000 00c0 e377 f33f
00000040: 0000 00a0 62f4 08c0 0000 00c0 3cdf f03f
00000050: 0000 0080 73b4 efbf 0000 00e0 c962 fc3f
00000060: 0000 00c0 ff62 efbf 0000 00a0 a994 fc3f
00000070: 0000 0020 862a efbf 0000 00a0 928b fc3f
00000080: 0000 0060 0afa efbf 0000 00a0 b053 fc3f
00000090: 0000 0020 3c0d efbf 0000 00c0 0194 fc3f
000000a0: 0000 00a0 e951 e5bf 0000 00c0 467f 0040
000000b0: 0000 00c0 45ac e5bf 0000 0000 bd6d 0040
000000c0: 0000 00c0 eed5 e5bf 0000 0060 277f 0040
000000d0: 0000 00a0 8bcb e5bf 0000 0040 0684 0040
000000e0: 0000 00e0 84f9 e5bf 0000 00a0 427b 0040
000000f0: 0000 0020 613e f0bf 0000 00c0 5413 0040
00000100: 0000 0040 e522 f0bf 0000 00c0 9d0d 0040
00000110: 0000 0040 3b1a f0bf 0000 0000 a70e 0040
00000120: 0000 0040 fe2d f0bf 0000 00c0 ab0c 0040
00000130: 0000 0020 dd3c f0bf 0000 0020 1a15 0040
00000140: 0000 00c0 4f17 fbbf 0000 00e0 e7b8 0440
00000150: 0000 0020 eca0 fbbf 0000 0000 2ba3 0440
00000160: 0000 0060 5fa3 fbbf 0000 0060 2b98 0440
00000170: 0000 0000 09a8 fbbf 0000 0060 c1b6 0440
00000180: 0000 0080 33bb fbbf 0000 0040 f79a 0440
-2.766110897064209 0.6051510572433472 -5.019690036773682 2.6539199352264404 -4.993748664855957 2.6350369453430176 -3.291890859603882 1.2167699337005615
-3.119328737258911 1.0545012950897217 -0.9907777309417725 1.7741183042526245 -0.9808348417282104 1.7862945795059204 -0.973940908908844 1.784075379371643
-0.9992725253105164 1.7704321146011353 -0.970365583896637 1.7861344814300537 -0.6662490963935852 2.0621466636657715 -0.6772793531417847 2.0535831451416016
-0.682364821434021 2.062086820602417 -0.6810968518257141 2.064465045928955 -0.6867088675498962 2.060185670852661 -1.015229344367981 2.009438991546631
-1.0085194110870361 2.006648540496826 -1.006404161453247 2.0071544647216797 -1.0112287998199463 2.0061869621276855 -1.0148593187332153 2.0103037357330322
-1.6931912899017334 2.5902860164642334 -1.7267876863479614 2.579671859741211 -1.7273858785629272 2.5743014812469482 -1.7285242080688477 2.58923602104187
-1.733203411102295 2.575666904449463
