data/optimization/optimization_partial/optimization_SGD_N100_T100/optimization_11_params.npy (npy, 528 bytes, 1 tensors)

array f8 [5, 5, 2]
000000 00 00 00 e0 4e 88 ea bf 00 00 00 20 5a 4a ff 3f
       -0.8291391730308533 1.9556523561477661
000010 00 00 00 80 c6 32 ea bf 00 00 00 60 ca 52 ff 3f
       -0.8186981678009033 1.9577125310897827
000020 00 00 00 80 ab 2f ea bf 00 00 00 60 ca 45 ff 3f
       -0.8183190822601318 1.9545387029647827
000030 00 00 00 20 2e d5 e9 bf 00 00 00 e0 f0 49 ff 3f
       -0.8072729706764221 1.9555519819259644
000040 00 00 00 40 ff 26 ea bf 00 00 00 00 d4 51 ff 3f
       -0.8172603845596313 1.9574775695800781
000050 00 00 00 20 ac fc f2 bf 00 00 00 60 63 05 f8 3f
       -1.1866875886917114 1.5013154745101929
000060 00 00 00 80 53 e7 f2 bf 00 00 00 00 88 2e f8 3f
       -1.18147611618042 1.5113601684570312
000070 00 00 00 00 e1 02 f3 bf 00 00 00 a0 2b cb f7 3f
       -1.1882028579711914 1.4871021509170532
000080 00 00 00 40 30 f6 f2 bf 00 00 00 60 0b 5b f8 3f
       -1.1851046085357666 1.5222276449203491
000090 00 00 00 20 78 10 f3 bf 00 00 00 00 d8 21 f8 3f
       -1.1915208101272583 1.5082626342773438
0000a0 00 00 00 a0 f8 85 ed bf 00 00 00 20 77 93 fa 3f
       -0.9226039052009583 1.661002278327942
0000b0 00 00 00 80 6d 34 ee bf 00 00 00 a0 41 dc fa 3f
       -0.9438998699188232 1.6787735223770142
0000c0 00 00 00 a0 4a 4f ee bf 00 00 00 40 73 b8 fa 3f
       -0.9471791386604309 1.6700317859649658
0000d0 00 00 00 a0 d1 db ed bf 00 00 00 c0 92 9f fa 3f
       -0.9330833554267883 1.6639583110809326
0000e0 00 00 00 a0 79 3f ee bf 00 00 00 20 b6 aa fa 3f
       -0.9452484250068665 1.6666775941848755
0000f0 00 00 00 c0 b0 7c e9 bf 00 00 00 40 90 da f9 3f
       -0.7964709997177124 1.6158602237701416
000100 00 00 00 20 a2 4a ea bf 00 00 00 80 49 f6 f9 3f
       -0.8216105103492737 1.6226286888122559
000110 00 00 00 60 08 a9 ea bf 00 00 00 a0 8b 03 fa 3f
       -0.8331338763237 1.6258655786514282
000120 00 00 00 c0 df 20 ea bf 00 00 00 e0 cb c1 f9 3f
       -0.816512942314148 1.6098135709762573
000130 00 00 00 00 35 47 ea bf 00 00 00 c0 eb 01 fa 3f
       -0.8211922645568848 1.6254689693450928
000140 00 00 00 40 46 95 f1 bf 00 00 00 00 7c bf fc 3f
       -1.0989439487457275 1.7967491149902344
000150 00 00 00 20 4e dd f1 bf 00 00 00 c0 05 a0 fc 3f
       -1.1165295839309692 1.7890679836273193
000160 00 00 00 80 56 6a f1 bf 00 00 00 60 9e ae fc 3f
       -1.0884613990783691 1.7926315069198608
000170 00 00 00 00 05 da f1 bf 00 00 00 e0 a8 ba fc 3f
       -1.115727424621582 1.795571208000183
000180 00 00 00 20 29 f7 f1 bf 00 00 00 a0 44 f5 fc 3f
       -1.1228419542312622 1.8098798990249634
