data/optimization/optimization_partial/optimization_SGD_N100_T100/optimization_0_params.npy (npy, 528 bytes, 1 tensors)

array f8 [5, 5, 2]
000000 00 00 00 e0 1d 2c f3 bf 00 00 00 00 36 52 fa 3f
       -1.1982706785202026 1.645071029663086
000010 00 00 00 e0 12 34 f3 bf 00 00 00 c0 59 52 fa 3f
       -1.2002133131027222 1.6451051235198975
000020 00 00 00 00 fc 7b f3 bf 00 00 00 60 98 48 fa 3f
       -1.2177696228027344 1.6427234411239624
000030 00 00 00 80 6b 14 f3 bf 00 00 00 40 4a 62 fa 3f
       -1.1924853324890137 1.6489965915679932
000040 00 00 00 80 1a 9d f3 bf 00 00 00 60 43 3f fa 3f
       -1.2258553504943848 1.6404451131820679
000050 00 00 00 e0 71 b1 ea bf 00 00 00 40 ea 10 fa 3f
       -0.8341607451438904 1.6291296482086182
000060 00 00 00 e0 49 9c ea bf 00 00 00 40 7a 0a fa 3f
       -0.8315781950950623 1.6275579929351807
000070 00 00 00 20 90 2a eb bf 00 00 00 80 29 50 fa 3f
       -0.848945677280426 1.6445708274841309
000080 00 00 00 20 87 89 ea bf 00 00 00 00 85 3a fa 3f
       -0.8292880654335022 1.639286994934082
000090 00 00 00 c0 64 5d eb bf 00 00 00 60 b5 23 fa 3f
       -0.855150580406189 1.6337178945541382
0000a0 00 00 00 40 37 41 e9 bf 00 00 00 60 d7 43 fd 3f
       -0.7892109155654907 1.829062819480896
0000b0 00 00 00 20 12 39 ea bf 00 00 00 a0 69 31 fd 3f
       -0.8194666504859924 1.8245636224746704
0000c0 00 00 00 80 6e 10 ea bf 00 00 00 00 30 46 fd 3f
       -0.8145058155059814 1.8296356201171875
0000d0 00 00 00 80 bc ea e9 bf 00 00 00 20 0b 45 fd 3f
       -0.8099043369293213 1.82935631275177
0000e0 00 00 00 00 7d 3c e9 bf 00 00 00 60 f1 35 fd 3f
       -0.7886338233947754 1.8256696462631226
0000f0 00 00 00 a0 b4 8b ed bf 00 00 00 40 e2 d1 ff 3f
       -0.9233039021492004 1.988741159439087
000100 00 00 00 80 b1 6e ec bf 00 00 00 20 f9 b9 ff 3f
       -0.888512372970581 1.9829035997390747
000110 00 00 00 80 98 2f ed bf 00 00 00 60 6c f7 ff 3f
       -0.912060022354126 1.9979060888290405
000120 00 00 00 a0 70 72 ec bf 00 00 00 40 cd e0 ff 3f
       -0.8889697194099426 1.9923832416534424
000130 00 00 00 80 cb 75 ed bf 00 00 00 e0 cb 11 00 40
       -0.9206292629241943 2.0086896419525146
000140 00 00 00 c0 7c e0 01 c0 00 00 00 40 9f 16 93 bf
       -2.2346129417419434 -0.01864098384976387
000150 00 00 00 c0 65 96 02 c0 00 00 00 40 30 0f c2 3f
       -2.3234362602233887 0.14108851552009583
000160 00 00 00 c0 f3 fa 04 c0 00 00 00 e0 94 72 f9 bf
       -2.622535228729248 -1.590474009513855
000170 00 00 00 20 11 9e 04 c0 00 00 00 c0 36 8f f7 bf
       -2.577181100845337 -1.4724643230438232
000180 00 00 00 40 f1 a9 02 c0 00 00 00 00 cd f5 c3 3f
       -2.332979679107666 0.1559387445449829
