data/optimization/optimization_full/optimization_T100_N1000/optimization_13_params.npy (npy, 1928 bytes, 1 tensors)

array f8 [5, 5, 9]
00000000: 0000 0080 14fa 11c0 0000 00a0 e4ac c6bf
00000010: 0000 0020 7f08 f0bf 0000 0020 afc1 ff3f
00000020: 0000 00e0 1ddc efbf 0000 00c0 895c f0bf
00000030: 0000 0000 a990 14c0 0000 00a0 9291 da3f
00000040: 0000 00a0 3abe d8bf 0000 0040 3e3f 13c0
00000050: 0000 0080 1a9b d0bf 0000 0000 776a f1bf
00000060: 0000 00c0 8a74 fe3f 0000 00e0 4b04 f0bf
00000070: 0000 0020 fb45 f0bf 0000 00c0 32df 10c0
00000080: 0000 00e0 4091 da3f 0000 00e0 d5ca d8bf
00000090: 0000 0080 16d6 11c0 0000 0000 ae8d c5bf
000000a0: 0000 0020 fbb2 efbf 0000 0040 81e9 ff3f
000000b0: 0000 0020 24d8 efbf 0000 0080 e15c f0bf
000000c0: 0000 0060 6854 15c0 0000 0020 1385 da3f
000000d0: 0000 0000 46b8 d8bf 0000 0060 d7f9 11c0
000000e0: 0000 0020 bebf c6bf 0000 0060 bc07 f0bf
000000f0: 0000 00c0 00c1 ff3f 0000 0060 c1d7 efbf
00000100: 0000 0060 e258 f0bf 0000 0060 f995 14c0
00000110: 0000 0000 598c da3f 0000 00c0 02bc d8bf
00000120: 0000 00a0 8800 12c0 0000 00e0 33e9 c6bf
00000130: 0000 00c0 6813 f0bf 0000 00a0 47ba ff3f
00000140: 0000 0000 32d9 efbf 0000 0000 2858 f0bf
00000150: 0000 0060 018a 14c0 0000 00a0 8b88 da3f
00000160: 0000 0040 e2c0 d8bf 0000 0080 46f2 10c0
00000170: 0000 0020 bd0a e0bf 0000 00e0 65d2 f0bf
00000180: 0000 00e0 91b8 fd3f 0000 0060 858e efbf
00000190: 0000 00c0 aaee efbf 0000 00a0 027f 16c0
000001a0: 0000 00c0 2acd d93f 0000 0060 fa48 d9bf
000001b0: 0000 0060 3b36 11c0 0000 0000 fa51 e1bf
000001c0: 0000 00a0 f036 f1bf 0000 0000 525a fd3f
000001d0: 0000 00c0 7a98 efbf 0000 0020 26e5 efbf
000001e0: 0000 0080 529b 14c0 0000 0000 99cc d93f
000001f0: 0000 0080 8845 d9bf 0000 00a0 1d25 11c0
00000200: 0000 0080 ed00 e1bf 0000 0080 111e f1bf
00000210: 0000 0020 ab71 fd3f 0000 0080 8197 efbf
00000220: 0000 0040 1ae7 efbf 0000 00c0 91fa 14c0
00000230: 0000 0060 e2cc d93f 0000 0080 004c d9bf
00000240: 0000 0080 9b48 11c0 0000 00a0 20c2 e1bf
00000250: 0000 0020 c652 f1bf 0000 00e0 6e3c fd3f
00000260: 0000 0020 c1a0 efbf 0000 0020 7be2 efbf
00000270: 0000 0000 3627 14c0 0000 0000 62ce d93f
00000280: 0000 00c0 c84a d9bf 0000 00a0 5ff3 10c0
00000290: 0000 0020 be11 e0bf 0000 0060 65d1 f0bf
000002a0: 0000 0060 8eb5 fd3f 0000 00a0 0f8c efbf
000002b0: 0000 0020 88ee efbf 0000 0080 2877 16c0
000002c0: 0000 00c0 e3ce d93f 0000 00e0 9039 d9bf
000002d0: 0000 00a0 9ed7 17c0 0000 0080 b6aa e8bf
000002e0: 0000 0080 2e25 efbf 0000 0080 b074 ff3f
000002f0: 0000 00a0 b54b f0bf 0000 00a0 bec8 eebf
00000300: 0000 0060 9ed8 1bc0 0000 0080 0845 da3f
00000310: 0000 0020 7f9f dabf 0000 0080 1936 1bc0
00000320: 0000 0040 0c3b f3bf 0000 0040 ed58 f0bf
00000330: 0000 0040 5e79 fe3f 0000 0020 8a60 f0bf
00000340: 0000 0000 a9ad eebf 0000 00c0 d0d3 17c0
00000350: 0000 0000 f160 da3f 0000 0040 7aa5 dabf
00000360: 0000 00c0 7f54 1bc0 0000 00a0 9e61 f3bf
00000370: 0000 0040 4b77 f0bf 0000 0080 fb4f fe3f
00000380: 0000 00a0 e865 f0bf 0000 0000 eca6 eebf
00000390: 0000 0000 3665 17c0 0000 00e0 b165 da3f
000003a0: 0000 0000 a09d dabf 0000 0020 b360 19c0
000003b0: 0000 00c0 43a5 eebf 0000 0000 bdc1 efbf
000003c0: 0000 0040 d101 ff3f 0000 00e0 e455 f0bf
000003d0: 0000 00c0 46be eebf 0000 0060 b386 19c0
000003e0: 0000 0080 775d da3f 0000 0060 75a3 dabf
000003f0: 0000 0080 6aff 1ac0 0000 00e0 e4f2 f2bf
00000400: 0000 0060 3600 f0bf 0000 00c0 4de3 fe3f
00000410: 0000 0080 e555 f0bf 0000 0060 4dc2 eebf
00000420: 0000 0060 45d7 18c0 0000 0060 9963 da3f
00000430: 0000 00a0 41a2 dabf 0000 0020 0c93 12c0
00000440: 0000 00e0 771d dabf 0000 0060 f81d f0bf
00000450: 0000 0000 d23c 0040 0000 0000 f341 f0bf
00000460: 0000 0040 60f9 edbf 0000 00a0 e99a 17c0
00000470: 0000 00a0 46e0 d93f 0000 0040 333f d9bf
00000480: 0000 0020 ed90 13c0 0000 0000 f553 e2bf
00000490: 0000 00a0 ac1e f1bf 0000 00c0 5f80 ff3f
000004a0: 0000 0060 1157 f0bf 0000 00e0 7bd7 edbf
000004b0: 0000 0060 9775 13c0 0000 0080 13e6 d93f
000004c0: 0000 00e0 db44 d9bf 0000 00a0 9762 12c0
000004d0: 0000 0020 cff7 d7bf 0000 0020 24cd efbf
000004e0: 0000 00c0 fc59 0040 0000 00c0 4c41 f0bf
000004f0: 0000 00c0 2504 eebf 0000 0020 604a 19c0
00000500: 0000 0080 b7d4 d93f 0000 00c0 342f d9bf
00000510: 0000 00e0 2ffa 12c0 0000 0000 53dd debf
00000520: 0000 00a0 ca7e f0bf 0000 0080 e011 0040
00000530: 0000 00a0 be49 f0bf 0000 00c0 24eb edbf
00000540: 0000 00a0 bc9a 15c0 0000 0020 2fe0 d93f
00000550: 0000 00c0 054a d9bf 0000 0040 32db 12c0
00000560: 0000 00a0 daec dcbf 0000 00c0 4463 f0bf
00000570: 0000 0060 861b 0040 0000 00a0 a948 f0bf
00000580: 0000 00e0 4cf2 edbf 0000 00a0 711d 16c0
00000590: 0000 0060 8edf d93f 0000 00a0 d43c d9bf
000005a0: 0000 0080 7bff 13c0 0000 00c0 3e7a d73f
000005b0: 0000 0040 456c f0bf 0000 0000 2d72 ff3f
000005c0: 0000 00a0 4064 f0bf 0000 0020 caa6 efbf
000005d0: 0000 00e0 6980 15c0 0000 0060 cbbb d93f
000005e0: 0000 0080 e1e0 dbbf 0000 0020 5e30 14c0
000005f0: 0000 00a0 0804 d53f 0000 00a0 6b84 f0bf
00000600: 0000 0020 8546 ff3f 0000 00e0 9d6d f0bf
00000610: 0000 0000 40aa efbf 0000 0060 11c7 14c0
00000620: 0000 00e0 9fbc d93f 0000 0040 82df dbbf
00000630: 0000 0080 42ec 13c0 0000 00e0 6c84 d83f
00000640: 0000 00a0 fc4d f0bf 0000 00c0 858c ff3f
00000650: 0000 0020 9765 f0bf 0000 00e0 9fad efbf
00000660: 0000 00e0 4901 16c0 0000 00c0 36be d93f
00000670: 0000 00e0 6ae4 dbbf 0000 00a0 16f8 13c0
00000680: 0000 00c0 07e5 d73f 0000 00e0 7661 f0bf
00000690: 0000 0020 b574 ff3f 0000 00a0 7367 f0bf
000006a0: 0000 00c0 0aac efbf 0000 00e0 c1a8 15c0
000006b0: 0000 0040 eabf d93f 0000 0060 33e3 dbbf
000006c0: 0000 00a0 9102 14c0 0000 00a0 b143 d73f
000006d0: 0000 0040 bf64 f0bf 0000 0020 7273 ff3f
000006e0: 0000 00a0 6968 f0bf 0000 0060 91ac efbf
000006f0: 0000 0060 a289 15c0 0000 0060 53b9 d93f
00000700: 0000 0000 39dd dbbf
-4.494218826293945 -0.17715127766132355 -1.0020743608474731 1.9847861528396606 -0.9956197142601013 -1.022592306137085 -5.141269683837891 0.41513505578041077
-0.38661065697669983 -4.811760902404785 -0.2594667673110962 -1.0884923934936523 1.9034526348114014 -1.0010489225387573 -1.0170851945877075 -4.2179670333862305
0.4151155650615692 -0.38738009333610535 -4.459070205688477 -0.16838622093200684 -0.9905982613563538 1.9945080280303955 -0.9951344132423401 -1.0226759910583496
-5.3324294090271 0.4143722355365753 -0.3862471580505371 -4.493985652923584 -0.17772652208805084 -1.001888632774353 1.9846198558807373 -0.9950873255729675
-1.0217002630233765 -5.146459102630615 0.41481614112854004 -0.38647526502609253 -4.500521183013916 -0.17899177968502045 -1.0047385692596436 1.9829784631729126
-0.9952630996704102 -1.0215225219726562 -5.13477087020874 0.41458407044410706 -0.38677269220352173 -4.236597061157227 -0.5013108849525452 -1.0513666868209839
1.8575609922409058 -0.9861475825309753 -0.9978841543197632 -5.624033451080322 0.4031473994255066 -0.39507922530174255 -4.3029608726501465 -0.5412569046020508
-1.0759130716323853 1.8345508575439453 -0.9873632192611694 -0.9967222809791565 -5.151681900024414 0.40311264991760254 -0.39486896991729736 -4.286245822906494
-0.5313632488250732 -1.069840908050537 1.840251088142395 -0.9872443675994873 -0.9969607591629028 -5.244696617126465 0.4031301438808441 -0.39526379108428955
-4.320905685424805 -0.5549471974372864 -1.082708477973938 1.8272541761398315 -0.988373339176178 -0.9963966012001038 -5.038291931152344 0.40322160720825195
-0.39518946409225464 -4.237669467926025 -0.5021658539772034 -1.0511220693588257 1.8568252325057983 -0.9858472943305969 -0.9978676438331604 -5.616365432739258
0.4032525420188904 -0.39413854479789734 -5.96056604385376 -0.7708389759063721 -0.9732887744903564 1.9659886360168457 -1.0184837579727173 -0.9620049595832825
-6.961541652679443 0.41046345233917236 -0.4159848988056183 -6.802831649780273 -1.201915979385376 -1.0217106342315674 1.9046308994293213 -1.0235692262649536
-0.9586987495422363 -5.956851005554199 0.4121668338775635 -0.41634994745254517 -6.832518577575684 -1.21133291721344 -1.0291244983673096 1.8945269584655762
-1.024880051612854 -0.9578762054443359 -5.848838806152344 0.4124569594860077 -0.41587066650390625 -6.344433307647705 -0.9576739072799683 -0.9923996925354004
1.937943696975708 -1.0209702253341675 -0.9607270956039429 -6.3815436363220215 0.41195476055145264 -0.41622671484947205 -6.749429702758789 -1.1843003034591675
-1.0000518560409546 1.9304940700531006 -1.0209708213806152 -0.961218535900116 -6.210225582122803 0.4123290479183197 -0.41615334153175354 -4.643600940704346
-0.4080485999584198 -1.0073169469833374 2.0296974182128906 -1.0161008834838867 -0.936691403388977 -5.901281833648682 0.40431371331214905 -0.39448243379592896
-4.891529560089111 -0.5727486610412598 -1.0699888467788696 1.968841314315796 -1.0212568044662476 -0.9325541853904724 -4.864835262298584 0.4046677350997925
-0.39482781291007996 -4.5962815284729 -0.3745000660419464 -0.9937916398048401 2.0439391136169434 -1.0159423351287842 -0.9380062818527222 -6.322632312774658
0.40360820293426514 -0.3935062289237976 -4.744323253631592 -0.48225855827331543 -1.0309549570083618 2.0087289810180664 -1.018004059791565 -0.934954047203064
-5.4011101722717285 0.40430811047554016 -0.39514297246932983 -4.714058876037598 -0.4519564211368561 -1.024235486984253 2.013439893722534 -1.0177398920059204
-0.9358276724815369 -5.528753757476807 0.4042697846889496 -0.39433780312538147 -4.999494552612305 0.3668362498283386 -1.0264332294464111 1.9653749465942383
-1.0244756937026978 -0.9891100525856018 -5.375403881072998 0.4020870625972748 -0.4356006383895874 -5.047234058380127 0.32837119698524475 -1.0323292016983032
1.9547168016433716 -1.0267618894577026 -0.989532470703125 -5.19440221786499 0.40213772654533386 -0.435516893863678 -4.980722427368164 0.3830825984477997
-1.0190397500991821 1.9718072414398193 -1.024802327156067 -0.9899443984031677 -5.501258373260498 0.4022347331047058 -0.4358164966106415 -4.992273807525635
0.37335389852523804 -1.0237950086593628 1.965993046760559 -1.0252567529678345 -0.9897512197494507 -5.414802074432373 0.40233856439590454 -0.43574222922325134
-5.002508640289307 0.3635067045688629 -1.0245964527130127 1.9656850099563599 -1.0254913568496704 -0.9898154139518738 -5.384408473968506 0.4019363820552826
-0.4353773593902588
