data/optimization/optimization_full/optimization_T100_N1000/optimization_1_params.npy (npy, 1928 bytes, 1 tensors)

array f8 [5, 5, 9]
-4.950094699859619 0.46447452902793884 -0.9989897012710571 1.9892361164093018 -0.956826388835907 -1.0275359153747559 -6.206310272216797 0.40140414237976074
-0.3882235288619995 -4.9242424964904785 0.45500051975250244 -0.9923803806304932 1.995269536972046 -0.956791341304779 -1.028234839439392 -6.367661952972412
0.4023296535015106 -0.3880886733531952 -4.9513750076293945 0.4642750322818756 -0.9981681704521179 1.988291621208191 -0.9573530554771423 -1.0275524854660034
-6.192221641540527 0.402052640914917 -0.38751915097236633 -4.894252300262451 0.41986727714538574 -0.9942363500595093 1.9936232566833496 -0.9559327363967896
-1.027536392211914 -6.369246959686279 0.40178540349006653 -0.38766270875930786 -4.965830326080322 0.4616803228855133 -1.0062847137451172 1.9812216758728027
-0.9558946490287781 -1.02597177028656 -6.010450839996338 0.4012893736362457 -0.3882887363433838 -4.197399139404297 0.19779106974601746 -1.069223403930664
1.9839239120483398 -1.0304888486862183 -0.9534198045730591 -8.71905517578125 0.42212074995040894 -0.399887353181839 -4.254576206207275 0.19093085825443268
-1.0977271795272827 1.9423177242279053 -1.0329941511154175 -0.9518110156059265 -6.052928924560547 0.4220142066478729 -0.40324848890304565 -4.194681167602539
0.1984780728816986 -1.0649710893630981 1.981408953666687 -1.0318334102630615 -0.954127848148346 -8.608169555664062 0.42209309339523315 -0.40185627341270447
-4.2110419273376465 0.19630292057991028 -1.0768182277679443 1.9688507318496704 -1.0315696001052856 -0.9531287550926208 -7.186354637145996 0.42157772183418274
-0.40271466970443726 -4.217829704284668 0.19553853571414948 -1.0816383361816406 1.964486837387085 -1.031826376914978 -0.9525718092918396 -6.913349628448486
0.42214658856391907 -0.40262892842292786 -4.270855903625488 0.08057913929224014 -0.9812696576118469 1.9870795011520386 -1.0022815465927124 -0.9377234578132629
-6.155848503112793 0.4056597650051117 -0.3986717462539673 -4.229857921600342 0.10443983227014542 -0.954414963722229 2.015188217163086 -0.9995967745780945
-0.9388494491577148 -8.272136688232422 0.4055558145046234 -0.3982728123664856 -4.285159587860107 0.07241843640804291 -0.9899236559867859 1.977225661277771
-1.0024327039718628 -0.937237560749054 -5.855550289154053 0.4060570001602173 -0.3989667594432831 -4.272839546203613 0.07788410782814026 -0.9835559129714966
1.9848964214324951 -1.0028177499771118 -0.9370818734169006 -6.094988822937012 0.40421274304389954 -0.39872539043426514 -4.227629661560059 0.11724301427602768
-0.9546178579330444 2.015639305114746 -0.9995770454406738 -0.938975989818573 -8.259852409362793 0.4058639407157898 -0.3987449109554291 -5.0272345542907715
1.2997701168060303 -1.0156816244125366 2.0122156143188477 -0.9721693396568298 -1.0075514316558838 -5.879711151123047 0.40122780203819275 -0.40877464413642883
-5.017800807952881 1.3011136054992676 -1.0117723941802979 2.0150630474090576 -0.9716823101043701 -1.0075193643569946 -5.987608909606934 0.4003785252571106
-0.40870532393455505 -5.0386881828308105 1.2972337007522583 -1.0202715396881104 2.0083656311035156 -0.9718087911605835 -1.0070451498031616 -5.758237838745117
0.4009670615196228 -0.4094558656215668 -5.03875732421875 1.3018510341644287 -1.0189462900161743 2.0086934566497803 -0.9721176028251648 -1.007314920425415
-5.7754316329956055 0.40082111954689026 -0.40933650732040405 -5.072273254394531 1.3059275150299072 -1.030110239982605 1.9979007244110107 -0.9724929332733154
-1.0062445402145386 -5.483808517456055 0.4010035991668701 -0.4096641540527344 -5.598137855529785 -1.0131726264953613 -0.9686249494552612 1.9777721166610718
-1.04318106174469 -0.9725515246391296 -7.195552349090576 0.41532379388809204 -0.41721057891845703 -5.699084281921387 -1.0801753997802734 -0.9487903714179993
1.9957213401794434 -1.0428332090377808 -0.9737184643745422 -7.646121025085449 0.41606882214546204 -0.4194243550300598 -5.679389953613281 -1.0714343786239624
-0.9116830229759216 1.9898163080215454 -1.0392409563064575 -0.9727282524108887 -8.918539047241211 0.41625145077705383 -0.4195781648159027 -5.689889907836914
-1.0765941143035889 -0.9392532110214233 2.004401445388794 -1.0417284965515137 -0.9733314514160156 -7.92573356628418 0.416106641292572 -0.41933149099349976
-5.730366230010986 -1.0954569578170776 -0.9762709736824036 1.9624505043029785 -1.0423786640167236 -0.971505343914032 -6.809071063995361 0.4171793460845947
-0.421421080827713
00000000: 0000 00a0 e5cc 13c0 0000 0060 f3b9 dd3f
00000010: 0000 0040 b9f7 efbf 0000 0040 e9d3 ff3f
00000020: 0000 0060 529e eebf 0000 0080 c970 f0bf
00000030: 0000 0000 43d3 18c0 0000 0000 9bb0 d93f
00000040: 0000 0080 a7d8 d8bf 0000 00a0 6cb2 13c0
00000050: 0000 0080 ba1e dd3f 0000 0080 94c1 efbf
00000060: 0000 00c0 9fec ff3f 0000 00e0 089e eebf
00000070: 0000 0060 a673 f0bf 0000 0060 7c78 19c0
00000080: 0000 00e0 c4bf d93f 0000 00e0 71d6 d8bf
00000090: 0000 0040 35ce 13c0 0000 00a0 aeb6 dd3f
000000a0: 0000 0060 fef0 efbf 0000 00e0 0ad0 ff3f
000000b0: 0000 00e0 a2a2 eebf 0000 00e0 da70 f0bf
000000c0: 0000 00c0 d5c4 18c0 0000 0000 3bbb d93f
000000d0: 0000 0020 1dcd d8bf 0000 00e0 b693 13c0
000000e0: 0000 0000 1bdf da3f 0000 00c0 c8d0 efbf
000000f0: 0000 0080 e1e5 ff3f 0000 0040 0097 eebf
00000100: 0000 0000 ca70 f0bf 0000 00e0 1b7a 19c0
00000110: 0000 0020 dab6 d93f 0000 0040 77cf d8bf
00000120: 0000 00a0 02dd 13c0 0000 00a0 2b8c dd3f
00000130: 0000 0000 be19 f0bf 0000 0080 15b3 ff3f
00000140: 0000 0060 b096 eebf 0000 0060 616a f0bf
00000150: 0000 00a0 b30a 18c0 0000 00a0 b9ae d93f
00000160: 0000 0000 b9d9 d8bf 0000 0000 23ca 10c0
00000170: 0000 00c0 3751 c93f 0000 0000 8a1b f1bf
00000180: 0000 0000 27be ff3f 0000 00e0 e17c f0bf
00000190: 0000 0040 6a82 eebf 0000 0000 2870 21c0
000001a0: 0000 00c0 0604 db3f 0000 0020 c197 d9bf
000001b0: 0000 00a0 af04 11c0 0000 0020 6c70 c83f
000001c0: 0000 0060 4a90 f1bf 0000 00c0 bb13 ff3f
000001d0: 0000 00e0 2487 f0bf 0000 0060 3c75 eebf
000001e0: 0000 0000 3336 18c0 0000 00e0 4702 db3f
000001f0: 0000 00c0 d2ce d9bf 0000 0080 5ac7 10c0
00000200: 0000 00c0 ba67 c93f 0000 0020 1f0a f1bf
00000210: 0000 00e0 d9b3 ff3f 0000 00c0 6382 f0bf
00000220: 0000 0020 3788 eebf 0000 0000 6237 21c0
00000230: 0000 00c0 9203 db3f 0000 0060 03b8 d9bf
00000240: 0000 0060 1bd8 10c0 0000 0040 7420 c93f
00000250: 0000 00c0 a53a f1bf 0000 00a0 6980 ff3f
00000260: 0000 0020 4f81 f0bf 0000 00e0 0780 eebf
00000270: 0000 00c0 d3be 1cc0 0000 0020 21fb da3f
00000280: 0000 00c0 13c6 d9bf 0000 00c0 0edf 10c0
00000290: 0000 0020 6807 c93f 0000 0000 644e f1bf
000002a0: 0000 00c0 896e ff3f 0000 0060 5c82 f0bf
000002b0: 0000 00e0 777b eebf 0000 0020 45a7 1bc0
000002c0: 0000 0020 7304 db3f 0000 0020 acc4 d9bf
000002d0: 0000 0040 5b15 11c0 0000 00a0 d5a0 b43f
000002e0: 0000 00a0 8f66 efbf 0000 00e0 13cb ff3f
000002f0: 0000 0060 5809 f0bf 0000 00a0 d401 eebf
00000300: 0000 00c0 969f 18c0 0000 0060 54f6 d93f
00000310: 0000 0080 d683 d9bf 0000 00e0 5feb 10c0
00000320: 0000 00a0 91bc ba3f 0000 0040 918a eebf
00000330: 0000 0000 1b1f 0040 0000 0060 b2fc efbf
00000340: 0000 0000 0e0b eebf 0000 0080 558b 20c0
00000350: 0000 0060 a0f4 d93f 0000 0040 4d7d d9bf
00000360: 0000 00e0 0024 11c0 0000 00c0 038a b23f
00000370: 0000 0060 74ad efbf 0000 0060 b7a2 ff3f
00000380: 0000 00e0 f609 f0bf 0000 00a0 d9fd edbf
00000390: 0000 0060 156c 17c0 0000 0080 d6fc d93f
000003a0: 0000 00e0 ab88 d9bf 0000 0040 6317 11c0
000003b0: 0000 0080 36f0 b33f 0000 0040 4a79 efbf
000003c0: 0000 00c0 22c2 ff3f 0000 00a0 8a0b f0bf
000003d0: 0000 0020 93fc edbf 0000 00c0 4461 18c0
000003e0: 0000 0020 9fde d93f 0000 0080 b784 d9bf
000003f0: 0000 00c0 17e9 10c0 0000 0060 a303 be3f
00000400: 0000 00c0 3a8c eebf 0000 0080 0720 0040
00000410: 0000 0000 89fc efbf 0000 0060 170c eebf
00000420: 0000 0060 0b85 20c0 0000 00c0 acf9 d93f
00000430: 0000 0060 0985 d9bf 0000 0060 e31b 14c0
00000440: 0000 00c0 dbcb f43f 0000 0060 3b40 f0bf
00000450: 0000 0080 0419 0040 0000 00e0 021c efbf
00000460: 0000 0040 ee1e f0bf 0000 0000 d384 17c0
00000470: 0000 0060 b7ad d93f 0000 0020 5d29 dabf
00000480: 0000 0060 3a12 14c0 0000 0080 5cd1 f43f
00000490: 0000 0040 3830 f0bf 0000 0060 d91e 0040
000004a0: 0000 0080 0518 efbf 0000 00a0 cc1e f0bf
000004b0: 0000 00c0 4ff3 17c0 0000 0040 cd9f d93f
000004c0: 0000 0060 3a28 dabf 0000 00e0 9d27 14c0
000004d0: 0000 0020 78c1 f43f 0000 0040 0853 f0bf
000004e0: 0000 0000 2211 0040 0000 00c0 0e19 efbf
000004f0: 0000 0060 db1c f0bf 0000 0080 6f08 17c0
00000500: 0000 00c0 71a9 d93f 0000 0060 8634 dabf
00000510: 0000 0000 b027 14c0 0000 00c0 61d4 f43f
00000520: 0000 00a0 9a4d f0bf 0000 00e0 cd11 0040
00000530: 0000 0060 961b efbf 0000 0040 f61d f0bf
00000540: 0000 00c0 0a1a 17c0 0000 00a0 0da7 d93f
00000550: 0000 00c0 9132 dabf 0000 0000 024a 14c0
00000560: 0000 0040 14e5 f43f 0000 00e0 547b f0bf
00000570: 0000 00c0 66f7 ff3f 0000 0080 a91e efbf
00000580: 0000 00e0 9319 f0bf 0000 0080 6bef 15c0
00000590: 0000 0000 0baa d93f 0000 0000 f037 dabf
000005a0: 0000 0040 7e64 16c0 0000 0080 f435 f0bf
000005b0: 0000 00c0 f9fe eebf 0000 0060 f4a4 ff3f
000005c0: 0000 00a0 deb0 f0bf 0000 0060 241f efbf
000005d0: 0000 00e0 3ec8 1cc0 0000 0040 aa94 da3f
000005e0: 0000 0000 94b3 dabf 0000 00c0 dccb 16c0
000005f0: 0000 0000 6648 f1bf 0000 00a0 7d5c eebf
00000600: 0000 0080 79ee ff3f 0000 00e0 71af f0bf
00000610: 0000 00a0 b328 efbf 0000 00c0 a095 1ec0
00000620: 0000 0020 dfa0 da3f 0000 0040 d9d7 dabf
00000630: 0000 0000 b2b7 16c0 0000 0060 9824 f1bf
00000640: 0000 00e0 812c edbf 0000 00a0 49d6 ff3f
00000650: 0000 0020 bba0 f0bf 0000 0000 9720 efbf
00000660: 0000 00c0 4ad6 21c0 0000 0020 dda3 da3f
00000670: 0000 0060 5eda dabf 0000 0080 72c2 16c0
00000680: 0000 00c0 ba39 f1bf 0000 00c0 5c0e eebf
00000690: 0000 00a0 0309 0040 0000 0080 ebaa f0bf
000006a0: 0000 0000 8825 efbf 0000 0080 f3b3 1fc0
000006b0: 0000 00c0 7da1 da3f 0000 00c0 53d6 dabf
000006c0: 0000 0020 e5eb 16c0 0000 00e0 fd86 f1bf
000006d0: 0000 00a0 9c3d efbf 0000 0080 3266 ff3f
000006e0: 0000 0040 95ad f0bf 0000 0060 9216 efbf
000006f0: 0000 0020 7d3c 1bc0 0000 0000 11b3 da3f
00000700: 0000 0020 90f8 dabf
