data/optimization/optimization_full/optimization_T100_N1000/optimization_10_params.npy (npy, 1928 bytes, 1 tensors)

array f8 [5, 5, 9]
00000000: 0000 0040 c48d 15c0 0000 00c0 c739 dcbf
00000010: 0000 00c0 0c93 f0bf 0000 0080 3a28 ff3f
00000020: 0000 0080 05b8 f0bf 0000 0020 3098 efbf
00000030: 0000 0020 de78 16c0 0000 0060 1262 d93f
00000040: 0000 00c0 d78a d9bf 0000 00a0 ff8b 15c0
00000050: 0000 00a0 304c dcbf 0000 0060 8f9a f0bf
00000060: 0000 0000 7a1f ff3f 0000 00e0 ccbd f0bf
00000070: 0000 0060 cea9 efbf 0000 00c0 4579 16c0
00000080: 0000 0000 1b62 d93f 0000 0040 2b87 d9bf
00000090: 0000 0020 3973 15c0 0000 0040 fbe0 dbbf
000000a0: 0000 0060 ed8d f0bf 0000 00e0 fa2b ff3f
000000b0: 0000 0000 d7bd f0bf 0000 0020 abab efbf
000000c0: 0000 0020 0daa 16c0 0000 00e0 cc61 d93f
000000d0: 0000 00c0 7e85 d9bf 0000 0060 c290 15c0
000000e0: 0000 00e0 903c dcbf 0000 00e0 f29b f0bf
000000f0: 0000 0020 b320 ff3f 0000 0040 33bc f0bf
00000100: 0000 0080 1fa7 efbf 0000 00a0 fa6e 16c0
00000110: 0000 0060 8c61 d93f 0000 0040 3291 d9bf
00000120: 0000 00a0 6489 15c0 0000 0080 9d2a dcbf
00000130: 0000 0000 f599 f0bf 0000 0080 d31f ff3f
00000140: 0000 00c0 d6bc f0bf 0000 0060 4faa efbf
00000150: 0000 00a0 d47e 16c0 0000 0080 465f d93f
00000160: 0000 0040 868a d9bf 0000 0040 a3b5 11c0
00000170: 0000 00c0 b11e bcbf 0000 0040 6834 f0bf
00000180: 0000 0080 8901 0040 0000 00e0 0a8b f0bf
00000190: 0000 0020 fe0b f0bf 0000 0000 d164 16c0
000001a0: 0000 0060 1371 da3f 0000 00a0 bdf9 dabf
000001b0: 0000 00c0 270d 12c0 0000 00a0 c0ff c9bf
000001c0: 0000 00a0 3978 f0bf 0000 00a0 85cd ff3f
000001d0: 0000 0000 098e f0bf 0000 00c0 fa08 f0bf
000001e0: 0000 00a0 2e05 15c0 0000 0080 ea73 da3f
000001f0: 0000 0020 dbfc dabf 0000 0060 69cd 11c0
00000200: 0000 0040 cb0a c2bf 0000 0020 1e4c f0bf
00000210: 0000 0020 54f7 ff3f 0000 0080 d98a f0bf
00000220: 0000 0080 3d0b f0bf 0000 0080 13e7 15c0
00000230: 0000 00e0 de6f da3f 0000 00e0 18f9 dabf
00000240: 0000 00a0 b41d 12c0 0000 0040 bfc9 cebf
00000250: 0000 00e0 b693 f0bf 0000 00c0 99b1 ff3f
00000260: 0000 00a0 158e f0bf 0000 00c0 3206 f0bf
00000270: 0000 0040 6fa1 14c0 0000 0080 6775 da3f
00000280: 0000 0020 2afb dabf 0000 0060 364f 12c0
00000290: 0000 0020 eb7a d2bf 0000 00e0 24b6 f0bf
000002a0: 0000 0020 2292 ff3f 0000 0000 ec8e f0bf
000002b0: 0000 0060 ee07 f0bf 0000 0020 0517 14c0
000002c0: 0000 0020 6b79 da3f 0000 0060 4d06 dbbf
000002d0: 0000 00e0 4b29 15c0 0000 0040 7951 f33f
000002e0: 0000 00e0 f9eb f0bf 0000 0000 f0fa ff3f
000002f0: 0000 00e0 aad4 f0bf 0000 00a0 5043 efbf
00000300: 0000 00e0 1629 18c0 0000 0020 aa86 d93f
00000310: 0000 0020 2124 d9bf 0000 0060 dfca 14c0
00000320: 0000 00c0 59f4 f23f 0000 0020 5993 f0bf
00000330: 0000 0080 a728 0040 0000 0040 e0cd f0bf
00000340: 0000 0060 694c efbf 0000 0060 453e 1cc0
00000350: 0000 0040 2585 d93f 0000 00c0 f925 d9bf
00000360: 0000 0060 56b2 14c0 0000 00c0 62e3 f23f
00000370: 0000 0040 a076 f0bf 0000 0060 9434 0040
00000380: 0000 00a0 42cd f0bf 0000 0060 5252 efbf
00000390: 0000 0060 5be7 1ec0 0000 00c0 737f d93f
000003a0: 0000 0060 9a24 d9bf 0000 0040 c139 15c0
000003b0: 0000 0020 ec33 f33f 0000 0020 c111 f1bf
000003c0: 0000 0080 96d8 ff3f 0000 0020 f3d7 f0bf
000003d0: 0000 00e0 174a efbf 0000 00a0 e3f9 16c0
000003e0: 0000 0040 9887 d93f 0000 0080 6720 d9bf
000003f0: 0000 00a0 d4fb 18c0 0000 0040 6bc4 f73f
00000400: 0000 0060 dbed f2bf 0000 0040 ad1a fe3f
00000410: 0000 0020 18f4 f0bf 0000 00c0 9608 efbf
00000420: 0000 0000 44d4 10c0 0000 0080 178a d93f
00000430: 0000 0020 2e32 d9bf 0000 00a0 7437 12c0
00000440: 0000 0020 b255 d53f 0000 00a0 6e26 f1bf
00000450: 0000 0020 2593 fe3f 0000 0000 43fa efbf
00000460: 0000 0080 fb30 f0bf 0000 0000 c425 16c0
00000470: 0000 0020 c013 da3f 0000 00e0 f4fe dabf
00000480: 0000 00e0 c90c 12c0 0000 0020 a11b d83f
00000490: 0000 0040 1adb f0bf 0000 00e0 4cda fe3f
000004a0: 0000 00e0 93ee efbf 0000 0020 5434 f0bf
000004b0: 0000 0020 dbfa 17c0 0000 00c0 c510 da3f
000004c0: 0000 00a0 f2fe dabf 0000 00a0 ec33 12c0
000004d0: 0000 00c0 2d80 d53f 0000 0020 3b1e f1bf
000004e0: 0000 00e0 289b fe3f 0000 0000 3cfd efbf
000004f0: 0000 00e0 6f32 f0bf 0000 0020 2d3c 16c0
00000500: 0000 00c0 6c0f da3f 0000 0020 81f9 dabf
00000510: 0000 0020 ed0d 12c0 0000 0020 87e7 d73f
00000520: 0000 0080 82cc f0bf 0000 0020 3eee fe3f
00000530: 0000 00a0 6aef efbf 0000 0080 5739 f0bf
00000540: 0000 0040 5553 18c0 0000 0020 3622 da3f
00000550: 0000 00a0 e6fc dabf 0000 0000 a52e 12c0
00000560: 0000 0060 c8d6 d53f 0000 0000 9715 f1bf
00000570: 0000 0040 27a0 fe3f 0000 0060 a0f8 efbf
00000580: 0000 00e0 2035 f0bf 0000 0080 0068 16c0
00000590: 0000 0000 5911 da3f 0000 00a0 4efa dabf
000005a0: 0000 00e0 7f16 13c0 0000 0020 257d e23f
000005b0: 0000 00c0 8f05 f0bf 0000 00a0 c230 ff3f
000005c0: 0000 00c0 7d2b f0bf 0000 00a0 7765 efbf
000005d0: 0000 00a0 f952 17c0 0000 00e0 654d d93f
000005e0: 0000 0020 7bae d9bf 0000 0020 ce8c 13c0
000005f0: 0000 00e0 62f5 e23f 0000 0020 4887 f0bf
00000600: 0000 0040 f5bb fe3f 0000 00a0 6b33 f0bf
00000610: 0000 0040 a158 efbf 0000 0000 19c9 14c0
00000620: 0000 00c0 d34f d93f 0000 00a0 9db1 d9bf
00000630: 0000 0040 6b93 13c0 0000 0020 23fe e23f
00000640: 0000 0040 cf8e f0bf 0000 0020 20b6 fe3f
00000650: 0000 00c0 8833 f0bf 0000 00e0 cd55 efbf
00000660: 0000 0020 ddaf 14c0 0000 0000 c051 d93f
00000670: 0000 0040 2cb8 d9bf 0000 00a0 ed15 14c0
00000680: 0000 0020 3d9a e43f 0000 0040 43b7 f0bf
00000690: 0000 0040 0490 fe3f 0000 00c0 9b37 f0bf
000006a0: 0000 0080 9953 efbf 0000 0080 3500 14c0
000006b0: 0000 0020 1645 d93f 0000 00e0 9fb4 d9bf
000006c0: 0000 00e0 3e05 13c0 0000 0020 24c1 e23f
000006d0: 0000 0020 20e5 efbf 0000 0020 1d49 ff3f
000006e0: 0000 00e0 3a29 f0bf 0000 00e0 0d67 efbf
000006f0: 0000 00c0 e2eb 17c0 0000 0080 6648 d93f
00000700: 0000 0040 27ad d9bf
-5.388443946838379 -0.44102662801742554 -1.0359008312225342 1.9473214149475098 -1.0449271202087402 -0.9873276352882385 -5.618034839630127 0.396610826253891
-0.39909929037094116 -5.386717319488525 -0.4421502649784088 -1.0377343893051147 1.9451847076416016 -1.0463379621505737 -0.9894782900810242 -5.618430137634277
0.39661288261413574 -0.39887505769729614 -5.362522602081299 -0.43560677766799927 -1.034650206565857 1.9482372999191284 -1.0463476181030273 -0.9897056221961975
-5.666065692901611 0.39659425616264343 -0.3987728953361511 -5.391366481781006 -0.44119665026664734 -1.0380734205245972 1.9454833269119263 -1.0459473133087158
-0.9891507625579834 -5.608377933502197 0.3965788781642914 -0.39948707818984985 -5.3841729164123535 -0.4401010274887085 -1.0375871658325195 1.94527006149292
-1.0461032390594482 -0.9895398020744324 -5.6238579750061035 0.39644014835357666 -0.3990798592567444 -4.427380561828613 -0.10984335839748383 -1.0127947330474854
2.0007505416870117 -1.033945918083191 -1.0029278993606567 -5.598453521728516 0.4131515920162201 -0.42149296402931213 -4.512846946716309 -0.20311744511127472
-1.029351830482483 1.9876762628555298 -1.0346765518188477 -1.0021922588348389 -5.25506067276001 0.4133249521255493 -0.42168310284614563 -4.450597286224365
-0.1409544050693512 -1.0185834169387817 1.9978829622268677 -1.0338988304138184 -1.002744197845459 -5.47566032409668 0.41307803988456726 -0.42145368456840515
-4.5290093421936035 -0.2405318319797516 -1.0360630750656128 1.9808595180511475 -1.0346885919570923 -1.0015132427215576 -5.157650947570801 0.413415789604187
-0.42157986760139465 -4.577355861663818 -0.28875234723091125 -1.0444687604904175 1.9731770753860474 -1.0348930358886719 -1.0019363164901733 -5.022480487823486
0.41366079449653625 -0.422259658575058 -5.290328502655029 1.2073910236358643 -1.057611346244812 1.9987640380859375 -1.051920771598816 -0.9769671559333801
-6.040126323699951 0.39884427189826965 -0.39283016324043274 -5.198117733001709 1.1846559047698975 -1.0359736680984497 2.019850730895996 -1.050262689590454
-0.9780775904655457 -7.060811519622803 0.39875155687332153 -0.3929428458213806 -5.174157619476318 1.1805140972137451 -1.028961420059204 2.0256736278533936
-1.0501123666763306 -0.978799045085907 -7.7259345054626465 0.398404061794281 -0.3928590714931488 -5.306401252746582 1.2001763582229614 -1.066834568977356
1.9903779029846191 -1.0527220964431763 -0.9777945876121521 -5.744032382965088 0.3989010453224182 -0.392602801322937 -6.2459282875061035 1.4854538440704346
-1.1830705404281616 1.8815128803253174 -1.0595933198928833 -0.9697984457015991 -4.2072906494140625 0.3990534543991089 -0.39368775486946106 -4.5541558265686035
0.33335545659065247 -1.0718828439712524 1.9109240770339966 -0.9992995262145996 -1.0119585990905762 -5.5368804931640625 0.4074554741382599 -0.4218113124370575
-4.512488842010498 0.37668636441230774 -1.0534918308258057 1.9282959699630737 -0.9978732466697693 -1.0127755403518677 -5.99497652053833 0.40727370977401733
-0.4218107759952545 -4.5507073402404785 0.3359484076499939 -1.0698806047439575 1.912880778312683 -0.9996623992919922 -1.012313723564148 -5.558765888214111
0.4071914553642273 -0.4214785397052765 -4.513599872589111 0.3735063374042511 -1.049929141998291 1.9331647157669067 -0.9979756474494934 -1.0139994621276855
-6.0813798904418945 0.40833809971809387 -0.4216858446598053 -4.545551300048828 0.3412342965602875 -1.0677709579467773 1.914099931716919 -0.9990999102592468
-1.0129708051681519 -5.601564407348633 0.40730881690979004 -0.42152753472328186 -4.771972179412842 0.5777764916419983 -1.0013577938079834 1.9494043588638306
-1.010617971420288 -0.98113614320755 -5.831030368804932 0.39534899592399597 -0.4012744724750519 -4.887505054473877 0.5924543738365173 -1.0330277681350708
1.9208881855010986 -1.0125538110733032 -0.9795690774917603 -5.196384429931641 0.39549726247787476 -0.4014658033847809 -4.893963813781738 0.5935226082801819
-1.0348656177520752 1.9194642305374146 -1.0125815868377686 -0.9792241454124451 -5.171741962432861 0.3956146240234375 -0.40186601877212524 -5.021414279937744
0.6438279747962952 -1.0447418689727783 1.9101603031158447 -1.0135762691497803 -0.9789550304412842 -5.000204086303711 0.3948417007923126 -0.40164944529533386
-4.755122661590576 0.5860767960548401 -0.9967194199562073 1.9553500413894653 -1.0100659132003784 -0.9813298583030701 -5.9803571701049805 0.3950439691543579
-0.40119343996047974
