data/optimization/optimization_full/optimization_T100_N1000/optimization_6_params.npy (npy, 1928 bytes, 1 tensors)

array f8 [5, 5, 9]
0	0xc0115fe460000000	-4.343644618988037
1	0x3fbfbef6c0000000	0.12400762736797333
2	0xbff0d51ca0000000	-1.0520292520523071
3	0x3fffdc7ec0000000	1.9913318157196045
4	0xbff09df9a0000000	-1.038568139076233
5	0xbfee3e5d60000000	-0.9451128840446472
6	0xc0151998e0000000	-5.274997234344482
7	0x3fda02fb00000000	0.4064319133758545
8	0xbfd9ec69e0000000	-0.4050545394420624
9	0xc01185be20000000	-4.380608081817627
10	0x3fbed04e20000000	0.12036598473787308
11	0xbff10b0d60000000	-1.065198302268982
12	0x3fffaa10e0000000	1.9790199995040894
13	0xbff0a047e0000000	-1.0391310453414917
14	0xbfee378be0000000	-0.9442805647850037
15	0xc0144a3560000000	-5.072469234466553
16	0x3fda070b20000000	0.4066798985004425
17	0xbfd9ebe0c0000000	-0.4050218462944031
18	0xc0112ea0c0000000	-4.295535087585449
19	0x3fc10fd0a0000000	0.13329513370990753
20	0xbff07db8e0000000	-1.0306938886642456
21	0x40001872a0000000	2.011937379837036
22	0xbff0975c20000000	-1.036953091621399
23	0xbfee4bce40000000	-0.9467536211013794
24	0xc0171677a0000000	-5.7719407081604
25	0x3fd9fd3e40000000	0.4060817360877991
26	0xbfd9e5c560000000	-0.40464910864830017
27	0xc01215bd80000000	-4.521230697631836
28	0x3fbcc795e0000000	0.11242043226957321
29	0xbff1b27300000000	-1.1060667037963867
30	0x3fff11f7c0000000	1.9418866634368896
31	0xbff0aaa960000000	-1.0416654348373413
32	0xbfee244fc0000000	-0.9419325590133667
33	0xc012300620000000	-4.546898365020752
34	0x3fda0d37e0000000	0.4070567786693573
35	0xbfd9fa3800000000	-0.4058971405029297
36	0xc011b67820000000	-4.428192615509033
37	0x3fbd35e820000000	0.11410380154848099
38	0xbff15530e0000000	-1.0832985639572144
39	0x3fff64db40000000	1.962123155593872
40	0xbff0a42880000000	-1.0400776863098145
41	0xbfee2f5d40000000	-0.9432817697525024
42	0xc013475060000000	-4.819642543792725
43	0x3fda0b00c0000000	0.4069215655326843
44	0xbfd9f719a0000000	-0.4057067930698395
45	0xc010d7dac0000000	-4.2107954025268555
46	0xbfb8358ea0000000	-0.09456721693277359
47	0xbfee2162e0000000	-0.9415754675865173
48	0x4000164200000000	2.0108680725097656
49	0xbff0839800000000	-1.0321273803710938
50	0xbfecf5f6c0000000	-0.9050248861312866
51	0xc017b5d420000000	-5.927567005157471
52	0x3fdad68140000000	0.4193423390388489
53	0xbfd9fcea00000000	-0.40606164932250977
54	0xc010ebc3c0000000	-4.230238914489746
55	0xbfbc2ed080000000	-0.11008933186531067
56	0xbfee5665c0000000	-0.9480465650558472
57	0x40000acca0000000	2.0052731037139893
58	0xbff0842480000000	-1.0322613716125488
59	0xbfecef96c0000000	-0.9042466878890991
60	0xc017002e40000000	-5.750176429748535
61	0x3fdad6a380000000	0.4193505048751831
62	0xbfd9fa50e0000000	-0.40590307116508484
63	0xc010c8c3c0000000	-4.196059226989746
64	0xbfb5a6e040000000	-0.08457757532596588
65	0xbfedfdbb40000000	-0.9372230768203735
66	0x40001d7320000000	2.0143797397613525
67	0xbff08215c0000000	-1.0317590236663818
68	0xbfecf66b80000000	-0.9050805568695068
69	0xc018458e00000000	-6.067924499511719
70	0x3fdada33a0000000	0.4195679724216461
71	0xbfd9fac540000000	-0.4059308171272278
72	0xc010b85b60000000	-4.1800360679626465
73	0xbfb1465380000000	-0.06747934222221375
74	0xbfedc23000000000	-0.9299545288085938
75	0x400029d3c0000000	2.020423412322998
76	0xbff081b320000000	-1.0316649675369263
77	0xbfecf99fe0000000	-0.9054717421531677
78	0xc0199e6420000000	-6.404678821563721
79	0x3fdad78200000000	0.4194035530090332
80	0xbfd9f312e0000000	-0.40546104311943054
81	0xc011256960000000	-4.286534786224365
82	0xbfc49e8980000000	-0.16108816862106323
83	0xbfeece1b80000000	-0.9626595973968506
84	0x3fffe2ed80000000	1.9929022789001465
85	0xbff0865ce0000000	-1.0328034162521362
86	0xbfeceb6d80000000	-0.9037387371063232
87	0xc0158a5760000000	-5.385098934173584
88	0x3fdade8c20000000	0.4198332130908966
89	0xbfda022ec0000000	-0.406383216381073
90	0xc014b39900000000	-5.175388336181641
91	0x3fe8f3dcc0000000	0.7797683477401733
92	0xbfeee467e0000000	-0.9653815627098083
93	0x40003d6740000000	2.029982089996338
94	0xbfefd2d080000000	-0.9944841861724854
95	0xbff000fbe0000000	-1.0002402067184448
96	0xc01891a700000000	-6.142238616943359
97	0x3fda753a60000000	0.41340503096580505
98	0xbfdb099aa0000000	-0.4224611818790436
99	0xc014e51ae0000000	-5.223735332489014
100	0x3fe9567400000000	0.7918033599853516
101	0xbfef651100000000	-0.9810872077941895
102	0x40002030c0000000	2.0157179832458496
103	0xbfefd055a0000000	-0.9941814541816711
104	0xbfeff3e9a0000000	-0.9985244870185852
105	0xc017330b00000000	-5.799846649169922
106	0x3fda7109a0000000	0.41314926743507385
107	0xbfdb125d40000000	-0.4229958653450012
108	0xc01502c620000000	-5.252708911895752
109	0x3fe968e920000000	0.7940564751625061
110	0xbfefb61740000000	-0.9909778833389282
111	0x400008b900000000	2.0042591094970703
112	0xbfefd68080000000	-0.9949343204498291
113	0xbfefee0da0000000	-0.9978092312812805
114	0xc016771200000000	-5.616279602050781
115	0x3fda689340000000	0.4126327633857727
116	0xbfdb161660000000	-0.4232231080532074
117	0xc01541f800000000	-5.314422607421875
118	0x3fe9c21120000000	0.8049398064613342
119	0xbff01f1280000000	-1.0075860023498535
120	0x3fffc7dd80000000	1.986295223236084
121	0xbfefe491c0000000	-0.9966515302658081
122	0xbfefe7c500000000	-0.997042179107666
123	0xc015535fc0000000	-5.331419944763184
124	0x3fda6700a0000000	0.41253677010536194
125	0xbfdb224f60000000	-0.4239691197872162
126	0xc014b0a8a0000000	-5.172518253326416
127	0x3fe8d171a0000000	0.7755668759346008
128	0xbfeefdc640000000	-0.9684783220291138
129	0x40003b7ec0000000	2.029050350189209
130	0xbfefc5d1c0000000	-0.9928978681564331
131	0xbfeff8c020000000	-0.9991150498390198
132	0xc0189d2dc0000000	-6.153494834899902
133	0x3fda6e1620000000	0.4129691421985626
134	0xbfdb143f20000000	-0.4231107532978058
135	0xc011564ac0000000	-4.3342695236206055
136	0xbfe896a360000000	-0.7683884501457214
137	0xbff09aac20000000	-1.0377618074417114
138	0x3fffe87520000000	1.994252324104309
139	0xbfef9bace0000000	-0.9877533316612244
140	0xbfedc2a7a0000000	-0.9300115704536438
141	0xc016c74c00000000	-5.6946258544921875
142	0x3fd976ad20000000	0.39786842465400696
143	0xbfd98005e0000000	-0.3984389007091522
144	0xc011869600000000	-4.381431579589844
145	0xbfe9c89fa0000000	-0.8057401776313782
146	0xbff0c76a00000000	-1.048685073852539
147	0x3fffbc0ec0000000	1.983412504196167
148	0xbfefa311c0000000	-0.9886559247970581
149	0xbfedbaa000000000	-0.9290313720703125
150	0xc015ddf020000000	-5.466736316680908
151	0x3fd973efc0000000	0.3977012038230896
152	0xbfd97a9d00000000	-0.39810872077941895
153	0xc011931000000000	-4.39361572265625
154	0xbfea00c1c0000000	-0.8125923871994019
155	0xbff0dedc00000000	-1.0544090270996094
156	0x3fffa354a0000000	1.9773756265640259
157	0xbfefa63b20000000	-0.9890418648719788
158	0xbfedb65d00000000	-0.9285111427307129
159	0xc0155eca80000000	-5.342569351196289
160	0x3fd9752680000000	0.3977752923965454
161	0xbfd97bf5e0000000	-0.3981909453868866
162	0xc01164be20000000	-4.348381519317627
163	0xbfe900c780000000	-0.7813451290130615
164	0xbff08f0680000000	-1.0349183082580566
165	0x3ffff3bbc0000000	1.9970052242279053
166	0xbfef9e7660000000	-0.9880935549736023
167	0xbfedc3c020000000	-0.9301453232765198
168	0xc0170624c0000000	-5.755999565124512
169	0x3fd974c240000000	0.3977513909339905
170	0xbfd972b2a0000000	-0.397625595331192
171	0xc011350260000000	-4.301766872406006
172	0xbfe7f326a0000000	-0.7484315037727356
173	0xbff03f15c0000000	-1.0154016017913818
174	0x40001aee80000000	2.013150215148926
175	0xbfef90e920000000	-0.9864392876625061
176	0xbfedc8e040000000	-0.930770993232727
177	0xc0194409c0000000	-6.31644344329834
178	0x3fd9732280000000	0.397652268409729
179	0xbfd9684540000000	-0.3969891667366028
180	0xc011e44fa0000000	-4.472959995269775
181	0xbfd9ff0c60000000	-0.4061919152736664
182	0xbff0a11200000000	-1.0393238067626953
183	0x400065e3a0000000	2.049750566482544
184	0xbff0233440000000	-1.0085947513580322
185	0xbfeee69b80000000	-0.9656503200531006
186	0xc0155df580000000	-5.341756820678711
187	0x3fd9d5d300000000	0.40367579460144043
188	0xbfd8d94f00000000	-0.388263463973999
189	0xc011eb9d20000000	-4.480091571807861
190	0xbfda14a940000000	-0.40751105546951294
191	0xbff0a45c60000000	-1.040127158164978
192	0x4000646e80000000	2.049038887023926
193	0xbff0224f80000000	-1.0083765983581543
194	0xbfeee30600000000	-0.9652128219604492
195	0xc0154727e0000000	-5.319488048553467
196	0x3fd9d9a300000000	0.40390849113464355
197	0xbfd8d9cb40000000	-0.3882930874824524
198	0xc0121b1ca0000000	-4.5264763832092285
199	0xbfdcd15ee0000000	-0.45027896761894226
200	0xbff0d7e800000000	-1.0527114868164062
201	0x40004d7720000000	2.037824869155884
202	0xbff028ed40000000	-1.0099918842315674
203	0xbfeee1e620000000	-0.9650755524635315
204	0xc0147b1780000000	-5.120206832885742
205	0x3fd9d34aa0000000	0.40352120995521545
206	0xbfd8d5fd00000000	-0.3880608081817627
207	0xc012766c40000000	-4.615647315979004
208	0xbfe09a8fc0000000	-0.5188673734664917
209	0xbff13fffe0000000	-1.0781248807907104
210	0x40001d1ea0000000	2.01421856880188
211	0xbff02e1ee0000000	-1.011259913444519
212	0xbfeed7fea0000000	-0.9638665318489075
213	0xc01329d560000000	-4.790853023529053
214	0x3fd9d7f9c0000000	0.4038071036338806
215	0xbfd8dee700000000	-0.38860487937927246
216	0xc011eba2a0000000	-4.480112552642822
217	0xbfda570860000000	-0.41156205534935
218	0xbff0acb240000000	-1.0421621799468994
219	0x400062ccc0000000	2.0482420921325684
220	0xbff025f800000000	-1.0092697143554688
221	0xbfeee05980000000	-0.9648864269256592
222	0xc015416840000000	-5.313874244689941
223	0x3fd9d642c0000000	0.40370243787765503
224	0xbfd8dd1400000000	-0.38849353790283203
