data/optimization/optimization_partial/optimization_SGD_N1000_T100/optimization_17_params.npy (npy, 528 bytes, 1 tensors)

array f8 [5, 5, 2]
00000000: 0000 00e0 2b7f efbf 0000 00e0 8b99 ff3f
00000010: 0000 0060 0c79 efbf 0000 0020 9b9d ff3f
00000020: 0000 00c0 7521 efbf 0000 0000 3ea2 ff3f
00000030: 0000 0020 faa4 efbf 0000 0040 039c ff3f
00000040: 0000 00a0 752c efbf 0000 0020 c2a1 ff3f
00000050: 0000 00a0 c516 f0bf 0000 00c0 06d7 fe3f
00000060: 0000 00a0 29cc efbf 0000 0020 f0da fe3f
00000070: 0000 0080 19bd efbf 0000 0040 cfda fe3f
00000080: 0000 00a0 a390 efbf 0000 0080 78dc fe3f
00000090: 0000 00e0 ef2a f0bf 0000 0080 e7db fe3f
000000a0: 0000 0060 9f64 efbf 0000 0040 418a 0040
000000b0: 0000 0040 9f88 efbf 0000 0080 ed87 0040
000000c0: 0000 0060 1ac8 efbf 0000 0000 8686 0040
000000d0: 0000 00a0 b671 efbf 0000 0080 a98a 0040
000000e0: 0000 00c0 807c efbf 0000 0040 d486 0040
000000f0: 0000 0060 fbbe ebbf 0000 0020 b844 0140
00000100: 0000 00a0 a19b ebbf 0000 0060 6a45 0140
00000110: 0000 0040 8a7d ebbf 0000 0080 3b44 0140
00000120: 0000 0080 a397 ebbf 0000 0020 ab44 0140
00000130: 0000 0020 2497 ebbf 0000 0000 1946 0140
00000140: 0000 0000 5edf efbf 0000 00a0 9e26 0040
00000150: 0000 00e0 3902 f0bf 0000 0040 4824 0040
00000160: 0000 0040 52eb efbf 0000 0000 a128 0040
00000170: 0000 0040 99b5 efbf 0000 0080 a128 0040
00000180: 0000 0040 fd1a f0bf 0000 0080 2d25 0040
-0.9842738509178162 1.9749869108200073 -0.9835264086723328 1.9759780168533325 -0.9728344678878784 1.9771099090576172 -0.9888888001441956 1.9755890369415283
-0.9741771817207336 1.9769917726516724 -1.0055595636367798 1.9274966716766357 -0.9936721920967102 1.928451657295227 -0.9918334484100342 1.9284203052520752
-0.986406147480011 1.928825855255127 -1.010482668876648 1.928687572479248 -0.9810330271720886 2.067507266998291 -0.9854274988174438 2.066370964050293
-0.9931766390800476 2.065685272216797 -0.9826310276985168 2.0677061080932617 -0.9839481115341187 2.0658345222473145 -0.8670632243156433 2.1585543155670166
-0.8627479672431946 2.1588943004608154 -0.8590747117996216 2.1583166122436523 -0.8622605800628662 2.15852952003479 -0.8621998429298401 2.1592273712158203
-0.9960165023803711 2.01885724067688 -1.000543475151062 2.0177159309387207 -0.9974757432937622 2.019838333129883 -0.9909178018569946 2.019839286804199
-1.0065891742706299 2.018153190612793
