data/optimization/optimization_partial/optimization_SGD_N1000_T100/optimization_11_params.npy (npy, 528 bytes, 1 tensors)

array f8 [5, 5, 2]
-0.9359509944915771 2.038036346435547 -0.9315417408943176 2.0398786067962646 -0.9279327392578125 2.040159225463867 -0.9157129526138306 2.039151191711426
-0.9212168455123901 2.040540933609009 -1.0342916250228882 1.977670431137085 -1.0413132905960083 1.9783509969711304 -1.0310719013214111 1.977314829826355
-1.039044737815857 1.9788264036178589 -1.0269438028335571 1.9793758392333984 -1.0000370740890503 1.9910180568695068 -1.0178658962249756 1.9885815382003784
-1.0092918872833252 1.9888836145401 -1.0222283601760864 1.9877568483352661 -1.0050554275512695 1.9886231422424316 -1.0557855367660522 1.908893346786499
-1.0522739887237549 1.9087274074554443 -1.0583611726760864 1.907763957977295 -1.0449213981628418 1.9095354080200195 -1.0525193214416504 1.9083201885223389
-0.905413031578064 2.1488614082336426 -0.9055711627006531 2.150169610977173 -0.9136181473731995 2.1503829956054688 -0.9111667275428772 2.1488728523254395
-0.9140526056289673 2.1487739086151123
00000000: 0000 0080 4ff3 edbf 0000 0000 e64d 0040
00000010: 0000 00a0 30cf edbf 0000 00e0 ab51 0040
00000020: 0000 0000 a0b1 edbf 0000 0000 3f52 0040
00000030: 0000 0040 854d edbf 0000 0080 2e50 0040
00000040: 0000 00c0 9b7a edbf 0000 0020 0753 0040
00000050: 0000 0060 758c f0bf 0000 00c0 89a4 ff3f
00000060: 0000 0020 38a9 f0bf 0000 0060 53a7 ff3f
00000070: 0000 0040 457f f0bf 0000 00e0 14a3 ff3f
00000080: 0000 0060 ed9f f0bf 0000 00e0 45a9 ff3f
00000090: 0000 00a0 5c6e f0bf 0000 0000 86ab ff3f
000000a0: 0000 00e0 2600 f0bf 0000 00c0 35db ff3f
000000b0: 0000 00c0 2d49 f0bf 0000 00e0 3ad1 ff3f
000000c0: 0000 0040 0f26 f0bf 0000 00a0 77d2 ff3f
000000d0: 0000 0020 0c5b f0bf 0000 0020 dacd ff3f
000000e0: 0000 0000 b514 f0bf 0000 0080 66d1 ff3f
000000f0: 0000 0060 7fe4 f0bf 0000 00c0 d38a fe3f
00000100: 0000 0040 1dd6 f0bf 0000 00c0 258a fe3f
00000110: 0000 0020 0cef f0bf 0000 0080 3386 fe3f
00000120: 0000 0080 ffb7 f0bf 0000 0000 758d fe3f
00000130: 0000 0080 1ed7 f0bf 0000 00c0 7a88 fe3f
00000140: 0000 00c0 24f9 ecbf 0000 0040 de30 0140
00000150: 0000 0060 70fa ecbf 0000 0020 8c33 0140
00000160: 0000 0020 5c3c edbf 0000 0000 fc33 0140
00000170: 0000 0020 4728 edbf 0000 0040 e430 0140
00000180: 0000 0040 eb3f edbf 0000 0060 b030 0140
