data/optimization/optimization_partial/optimization_SGD_N1000_T100/optimization_8_params.npy (npy, 528 bytes, 1 tensors)

array f8 [5, 5, 2]
0	0xbfef4c0160000000	-0.9780279994010925
1	0x40009d05c0000000	2.0766711235046387
2	0xbfef87a0c0000000	-0.9853061437606812
3	0x40009c4fe0000000	2.076324224472046
4	0xbfef0f6780000000	-0.970630407333374
5	0x40009ba300000000	2.0759944915771484
6	0xbfef4f8740000000	-0.978458046913147
7	0x40009e2880000000	2.077225685119629
8	0xbfef37a1a0000000	-0.9755409359931946
9	0x40009c6800000000	2.0763702392578125
10	0xbfef0031a0000000	-0.9687736630439758
11	0x3fff0d9b20000000	1.9408217668533325
12	0xbfef8f6be0000000	-0.9862574934959412
13	0x3fff0f15a0000000	1.9411827325820923
14	0xbfef488340000000	-0.9776016473770142
15	0x3ffeffe540000000	1.9374744892120361
16	0xbfeedae5e0000000	-0.9642209410667419
17	0x3fff125d80000000	1.941983699798584
18	0xbfef6d33a0000000	-0.9820802807807922
19	0x3fff0c2f80000000	1.9404749870300293
20	0xbff1539520000000	-1.082905888557434
21	0x3fff1502c0000000	1.9426295757293701
22	0xbff15c9940000000	-1.0851070880889893
23	0x3fff1550e0000000	1.9427040815353394
24	0xbff13a2ac0000000	-1.0767009258270264
25	0x3fff131620000000	1.9421597719192505
26	0xbff1479740000000	-1.0799782276153564
27	0x3fff176880000000	1.9432148933410645
28	0xbff17f6860000000	-1.093605399131775
29	0x3fff137520000000	1.942250370979309
30	0xbff01654e0000000	-1.005452036857605
31	0x400038b320000000	2.0276854038238525
32	0xbff00aa180000000	-1.0025954246520996
33	0x40003c0f20000000	2.0293257236480713
34	0xbff0247880000000	-1.008903980255127
35	0x4000374d00000000	2.0270023345947266
36	0xbfefe59e80000000	-0.9967796802520752
37	0x400039d400000000	2.0282363891601562
38	0xbff013b320000000	-1.0048094987869263
39	0x40003a75e0000000	2.0285451412200928
40	0xbfef6942a0000000	-0.9815991520881653
41	0x40006dff40000000	2.0537095069885254
42	0xbfef53ac20000000	-0.9789639115333557
43	0x40006df160000000	2.053683042526245
44	0xbfef5bdd20000000	-0.9799638390541077
45	0x4000720e20000000	2.0556910037994385
46	0xbfef8ffaa0000000	-0.9863255620002747
47	0x40006ec800000000	2.0540924072265625
48	0xbfef4c5d40000000	-0.9780718088150024
49	0x40006e0a80000000	2.0537309646606445
