data/optimization/optimization_partial/optimization_SGD_N1000_T100/optimization_15_params.npy (npy, 528 bytes, 1 tensors)

array f8 [5, 5, 2]
00000000: 0000 00a0 f992 efbf 0000 0020 9b1c 0040
00000010: 0000 00c0 6e97 efbf 0000 00c0 1d1c 0040
00000020: 0000 0020 b884 efbf 0000 0020 c51c 0040
00000030: 0000 0040 0e94 efbf 0000 00e0 f819 0040
00000040: 0000 0040 6c9b efbf 0000 00c0 901b 0040
00000050: 0000 0060 a513 efbf 0000 00e0 9820 0040
00000060: 0000 00c0 a836 efbf 0000 0000 2720 0040
00000070: 0000 0080 7526 efbf 0000 0080 4a22 0040
00000080: 0000 0020 a7fa eebf 0000 0040 4c23 0040
00000090: 0000 0020 7c2e efbf 0000 0060 8f20 0040
000000a0: 0000 00c0 25da ebbf 0000 0020 6538 0040
000000b0: 0000 0000 6ca6 ebbf 0000 00e0 bd35 0040
000000c0: 0000 00e0 1ade ebbf 0000 00c0 8336 0040
000000d0: 0000 00c0 22fc ebbf 0000 00c0 d535 0040
000000e0: 0000 0080 abd6 ebbf 0000 0080 6b39 0040
000000f0: 0000 00e0 a8d8 efbf 0000 0040 6133 ff3f
00000100: 0000 00c0 44e3 efbf 0000 0020 1437 ff3f
00000110: 0000 00e0 99d4 efbf 0000 0060 2d39 ff3f
00000120: 0000 0000 5898 efbf 0000 00e0 133c ff3f
00000130: 0000 0060 15cf efbf 0000 0000 6639 ff3f
00000140: 0000 0080 204e f0bf 0000 00e0 bbc8 fe3f
00000150: 0000 0060 9150 f0bf 0000 0080 a8c3 fe3f
00000160: 0000 00a0 c76e f0bf 0000 00c0 97c4 fe3f
00000170: 0000 0080 5553 f0bf 0000 0000 f1cd fe3f
00000180: 0000 0080 0228 f0bf 0000 0040 3dcc fe3f
-0.9866912961006165 2.013967752456665 -0.987235426902771 2.013728618621826 -0.9849510788917542 2.014047861099243 -0.9868232011795044 2.012681722640991
-0.9877225160598755 2.0134596824645996 -0.9711481928825378 2.015916585922241 -0.9754222631454468 2.0156993865966797 -0.9734447002410889 2.0167436599731445
-0.9680972695350647 2.017235279083252 -0.974424421787262 2.0158984661102295 -0.8703793287277222 2.027536630630493 -0.8640651702880859 2.0262410640716553
-0.8708624243736267 2.026618480682373 -0.8745282888412476 2.0262866020202637 -0.8699548244476318 2.0280370712280273 -0.9951977133750916 1.9500439167022705
-0.9964927434921265 1.9509469270706177 -0.9947022795677185 1.951459288597107 -0.9873466491699219 1.9521673917770386 -0.9940287470817566 1.9515132904052734
-1.0190739631652832 1.9240072965621948 -1.0196698904037476 1.9227681159973145 -1.0270458459854126 1.9229962825775146 -1.0203452110290527 1.925278663635254
-1.009768009185791 1.9248631000518799
