data/optimization/optimization_full/optimization_T300_N100/optimization_9_params.npy (npy, 1928 bytes, 1 tensors)

array f8 [5, 5, 9]
00000000: 0000 00a0 2f05 23c0 0000 0000 d63f ccbf
00000010: 0000 00a0 e136 f0bf 0000 0060 cef7 ff3f
00000020: 0000 0060 aac0 f1bf 0000 00a0 fcad ecbf
00000030: 0000 00c0 5b7c 1ac0 0000 0040 e93a d93f
00000040: 0000 0040 5812 dcbf 0000 00c0 f448 22c0
00000050: 0000 0060 82d7 cabf 0000 00a0 3417 f0bf
00000060: 0000 0020 cf01 0040 0000 0000 31c1 f1bf
00000070: 0000 0000 14b3 ecbf 0000 0080 80bb 1ac0
00000080: 0000 00c0 303b d93f 0000 00a0 d910 dcbf
00000090: 0000 00c0 14e1 21c0 0000 00a0 aadd cdbf
000000a0: 0000 0060 0224 f0bf 0000 0000 640b 0040
000000b0: 0000 00c0 4cc1 f1bf 0000 0080 b9b1 ecbf
000000c0: 0000 0020 4485 1ac0 0000 0040 3a48 d93f
000000d0: 0000 00e0 4f22 dcbf 0000 0040 495d 25c0
000000e0: 0000 0020 1fe1 cdbf 0000 0080 b717 f0bf
000000f0: 0000 0080 b105 0040 0000 00e0 1cb3 f1bf
00000100: 0000 0000 a5a3 ecbf 0000 00c0 b8bf 1ac0
00000110: 0000 0020 2255 d93f 0000 0000 0518 dcbf
00000120: 0000 0000 6b6e 22c0 0000 00e0 9062 cfbf
00000130: 0000 0020 e367 f0bf 0000 00a0 0423 0040
00000140: 0000 0020 eac7 f1bf 0000 0040 83b1 ecbf
00000150: 0000 0080 ce9e 19c0 0000 0080 9b3c d93f
00000160: 0000 0080 d80e dcbf 0000 0080 09b6 23c0
00000170: 0000 0000 fbc6 d3bf 0000 00a0 5475 f0bf
00000180: 0000 00c0 00a2 ff3f 0000 0080 7106 f0bf
00000190: 0000 0020 2854 f0bf 0000 00e0 e966 11c0
000001a0: 0000 0060 daa1 d93f 0000 0080 666d dabf
000001b0: 0000 0000 1540 21c0 0000 0000 2277 d3bf
000001c0: 0000 0020 2c83 f0bf 0000 00e0 739c ff3f
000001d0: 0000 0080 6905 f0bf 0000 0000 f754 f0bf
000001e0: 0000 00e0 ad6f 11c0 0000 00a0 b59e d93f
000001f0: 0000 0080 2c6b dabf 0000 0040 eb4e 23c0
00000200: 0000 00a0 911f d3bf 0000 0060 1586 f0bf
00000210: 0000 0020 9594 ff3f 0000 0040 ed05 f0bf
00000220: 0000 0060 9d55 f0bf 0000 0060 6069 11c0
00000230: 0000 00e0 6298 d93f 0000 0080 b75f dabf
00000240: 0000 0080 9119 25c0 0000 00e0 336a d2bf
00000250: 0000 00e0 4433 f1bf 0000 0020 4c13 ff3f
00000260: 0000 0040 e60d f0bf 0000 0080 7e4f f0bf
00000270: 0000 00c0 4b1a 10c0 0000 00c0 039b d93f
00000280: 0000 0080 576f dabf 0000 0080 6b19 22c0
00000290: 0000 00c0 48da c9bf 0000 00c0 d990 f0bf
000002a0: 0000 0060 be92 ff3f 0000 00e0 fe04 f0bf
000002b0: 0000 0060 c052 f0bf 0000 00e0 5b43 11c0
000002c0: 0000 00a0 b3a2 d93f 0000 0080 a571 dabf
000002d0: 0000 00e0 7f50 1fc0 0000 0000 d05b cebf
000002e0: 0000 00a0 6d8b edbf 0000 00a0 f74a fd3f
000002f0: 0000 0080 c973 eabf 0000 0060 ebe4 f0bf
00000300: 0000 0000 8dc4 17c0 0000 0000 151c da3f
00000310: 0000 00c0 bc6b dabf 0000 0080 572b 25c0
00000320: 0000 0060 9952 cebf 0000 0000 d290 edbf
00000330: 0000 00a0 014c fd3f 0000 0000 9a66 eabf
00000340: 0000 00e0 cbe1 f0bf 0000 0000 9a89 17c0
00000350: 0000 0040 9e0d da3f 0000 00a0 207a dabf
00000360: 0000 0080 3d18 23c0 0000 00e0 d42b cebf
00000370: 0000 00c0 7129 eebf 0000 0040 7a37 fd3f
00000380: 0000 0080 067c eabf 0000 0040 10dd f0bf
00000390: 0000 0080 2a97 16c0 0000 00c0 8d29 da3f
000003a0: 0000 00a0 b673 dabf 0000 0040 9f1b 1ec0
000003b0: 0000 0000 238e cebf 0000 0040 b977 edbf
000003c0: 0000 0020 cb4f fd3f 0000 0060 bd67 eabf
000003d0: 0000 0080 8de4 f0bf 0000 00c0 81d6 17c0
000003e0: 0000 00a0 3322 da3f 0000 0000 bc75 dabf
000003f0: 0000 0080 3f2d 1ec0 0000 0000 dd9b cabf
00000400: 0000 0040 7294 edbf 0000 0000 4f4b fd3f
00000410: 0000 0000 ad70 eabf 0000 00a0 87df f0bf
00000420: 0000 00a0 3f99 17c0 0000 00e0 9f20 da3f
00000430: 0000 0020 5872 dabf 0000 0020 6cab 0cc0
00000440: 0000 0020 d8b3 dbbf 0000 00e0 d868 f1bf
00000450: 0000 00c0 3c08 ff3f 0000 0000 7be1 efbf
00000460: 0000 0020 6c9c f0bf 0000 0080 5782 18c0
00000470: 0000 00e0 42d2 da3f 0000 00a0 941b d8bf
00000480: 0000 00e0 0ccf 0cc0 0000 0020 2f10 dcbf
00000490: 0000 0000 a02f f1bf 0000 0080 6c6b fe3f
000004a0: 0000 00e0 5fe6 efbf 0000 00a0 7aa7 f0bf
000004b0: 0000 0080 36fd 1fc0 0000 0040 29d0 da3f
000004c0: 0000 00e0 0a0e d8bf 0000 0080 75bc 0cc0
000004d0: 0000 00a0 8fbc dbbf 0000 00c0 8f21 f1bf
000004e0: 0000 0020 33a9 fe3f 0000 00a0 f3e0 efbf
000004f0: 0000 0020 37a2 f0bf 0000 0080 7b37 1dc0
00000500: 0000 00c0 94d1 da3f 0000 0060 941a d8bf
00000510: 0000 0080 afbb 0cc0 0000 0060 4bc4 dbbf
00000520: 0000 00e0 f52c f1bf 0000 0020 11c5 fe3f
00000530: 0000 0060 b1e4 efbf 0000 0080 12a2 f0bf
00000540: 0000 0040 ea02 1cc0 0000 00c0 a1d0 da3f
00000550: 0000 0080 ffe3 d7bf 0000 00e0 d69e 0cc0
00000560: 0000 0060 77b5 dbbf 0000 00c0 2247 f1bf
00000570: 0000 0040 e209 ff3f 0000 0080 0adf efbf
00000580: 0000 00c0 e79a f0bf 0000 0080 4eee 19c0
00000590: 0000 0040 eccd da3f 0000 0020 ab15 d8bf
000005a0: 0000 0060 8604 1ac0 0000 0040 2bf7 fc3f
000005b0: 0000 0080 87ac f2bf 0000 0040 f61d fd3f
000005c0: 0000 0000 be54 f0bf 0000 00e0 2a16 f0bf
000005d0: 0000 0040 ec76 0cc0 0000 00c0 cca2 d93f
000005e0: 0000 0080 b83d d7bf 0000 0020 8e11 1ac0
000005f0: 0000 00a0 5e08 fd3f 0000 00e0 03b2 f2bf
00000600: 0000 0000 0314 fd3f 0000 00c0 7657 f0bf
00000610: 0000 0040 9316 f0bf 0000 0080 5060 0cc0
00000620: 0000 00c0 6e9e d93f 0000 0080 7735 d7bf
00000630: 0000 0000 7f54 1ac0 0000 0060 650c fd3f
00000640: 0000 00c0 5bdb f2bf 0000 00e0 71fd fc3f
00000650: 0000 00a0 9257 f0bf 0000 00e0 0314 f0bf
00000660: 0000 0000 18f0 0bc0 0000 0020 a0ad d93f
00000670: 0000 0080 1a35 d7bf 0000 00a0 b212 1ac0
00000680: 0000 0020 b306 fd3f 0000 0080 25af f2bf
00000690: 0000 00c0 3112 fd3f 0000 0000 7f57 f0bf
000006a0: 0000 00e0 ae16 f0bf 0000 0020 724e 0cc0
000006b0: 0000 0020 e4a8 d93f 0000 0060 b937 d7bf
000006c0: 0000 0040 3b1c 1ac0 0000 00e0 b605 fd3f
000006d0: 0000 00a0 cbba f2bf 0000 00e0 cf0e fd3f
000006e0: 0000 0080 5a55 f0bf 0000 00e0 8715 f0bf
000006f0: 0000 0060 664d 0cc0 0000 00e0 6eac d93f
00000700: 0000 0000 934a d7bf
-9.51012897491455 -0.22069811820983887 -1.0133987665176392 1.9979995489120483 -1.1095374822616577 -0.8962386250495911 -6.621443748474121 0.39422065019607544
-0.4386196732521057 -9.142492294311523 -0.20970182120800018 -1.0056654214859009 2.0008833408355713 -1.109665870666504 -0.8968601226806641 -6.683107376098633
0.3942376971244812 -0.438528448343277 -8.939611434936523 -0.2333272248506546 -1.0087913274765015 2.0055618286132812 -1.1096923351287842 -0.8966948986053467
-6.630142688751221 0.39503341913223267 -0.43959423899650574 -10.682199478149414 -0.23343266546726227 -1.0057902336120605 2.002779960632324 -1.1062287092208862
-0.8949761390686035 -6.687228202819824 0.39582112431526184 -0.4389660358428955 -9.215660095214844 -0.24519549310207367 -1.0253630876541138 2.0170986652374268
-1.1113072633743286 -0.8966690301895142 -6.405084609985352 0.3943241834640503 -0.4384061098098755 -9.855541229248047 -0.3090198040008545 -1.0286451578140259
1.9770514965057373 -1.001573085784912 -1.0205460786819458 -4.350501537322998 0.4005037248134613 -0.4129272699356079 -8.625160217285156 -0.30414628982543945
-1.0320245027542114 1.9756964445114136 -1.0013213157653809 -1.0207433700561523 -4.3590617179870605 0.4003118574619293 -0.41279137134552 -9.654138565063477
-0.29880180954933167 -1.0327352285385132 1.973775029182434 -1.0014469623565674 -1.0209020376205444 -4.352906703948975 0.39992591738700867 -0.41209208965301514
-10.549938201904297 -0.2877320945262909 -1.0750168561935425 1.9422112703323364 -1.0033934116363525 -1.0194077491760254 -4.025679588317871 0.40008634328842163
-0.4130457639694214 -9.04964828491211 -0.20197400450706482 -1.0353639125823975 1.9733260869979858 -1.001219630241394 -1.0202029943466187 -4.315780162811279
0.4005555212497711 -0.4131864309310913 -7.828612804412842 -0.23717689514160156 -0.923270046710968 1.8308025598526 -0.8266341686248779 -1.0558885335922241
-5.941944122314453 0.40796399116516113 -0.4128257632255554 -10.584651947021484 -0.23689572513103485 -0.9239282608032227 1.8310562372207642 -0.8250246047973633
-1.0551260709762573 -5.884376525878906 0.4070811867713928 -0.4137040674686432 -9.547344207763672 -0.23571263253688812 -0.9425591230392456 1.8260443210601807
-0.8276398181915283 -1.0539705753326416 -5.647623062133789 0.40878623723983765 -0.4133125841617584 -7.526974678039551 -0.23871266841888428 -0.9208647012710571
1.83198082447052 -0.8251635432243347 -1.0557990074157715 -5.959479331970215 0.4083375036716461 -0.4134359359741211 -7.544187545776367 -0.20788156986236572
-0.9243708848953247 1.830885887145996 -0.8262543678283691 -1.0545727014541626 -5.899656772613525 0.40824124217033386 -0.4132290184497833 -3.583702325820923
-0.4328518211841583 -1.0880974531173706 1.9395110607147217 -0.996274471282959 -1.0381890535354614 -6.127286911010742 0.4190833270549774 -0.37668338418006897
-3.6010987758636475 -0.43848779797554016 -1.074127197265625 1.90122652053833 -0.9968718886375427 -1.0408884286880493 -7.997278213500977 0.41895514726638794
-0.37585708498954773 -3.5920209884643555 -0.43338385224342346 -1.0706937313079834 1.9163085222244263 -0.9962099194526672 -1.039603352546692 -7.304182052612305
0.41904181241989136 -0.3766222894191742 -3.5916433334350586 -0.4338558614253998 -1.0734766721725464 1.9231120347976685 -0.9966666102409363 -1.0395684242248535
-7.002846717834473 0.4189838767051697 -0.37329089641571045 -3.5775582790374756 -0.43295082449913025 -1.0798671245574951 1.939913034439087 -0.9959766864776611
-1.0378186702728271 -6.482721328735352 0.41881853342056274 -0.37632253766059875 -6.504418849945068 1.8103439807891846 -1.167121410369873 1.819814920425415
-1.0206890106201172 -1.005411982536316 -3.558067798614502 0.40056151151657104 -0.36314213275909424 -6.517143726348877 1.81454336643219 -1.168460726737976
1.8173856735229492 -1.0213534832000732 -1.0055115222930908 -3.5470285415649414 0.4002949595451355 -0.36263835430145264 -6.582515716552734 1.8155263662338257
-1.1785542964935303 1.8118761777877808 -1.021380066871643 -1.004886507987976 -3.4922332763671875 0.40122225880622864 -0.3626161813735962 -6.518259525299072
1.8141356706619263 -1.1677603721618652 1.8169419765472412 -1.0213613510131836 -1.0055378675460815 -3.5383036136627197 0.40093329548835754 -0.36277613043785095
-6.527569770812988 1.8138951063156128 -1.1706043481826782 1.816116213798523 -1.0208382606506348 -1.0052565336227417 -3.537792921066284 0.4011494815349579
-0.36392664909362793
