data/optimization/optimization_full/optimization_T100_N100/optimization_5_params.npy (npy, 1928 bytes, 1 tensors)

array f8 [5, 5, 9]
0	0xc00ea9ebc0000000	-3.8329691886901855
1	0xbfedeb8e40000000	-0.9350043535232544
2	0xbff0c78ea0000000	-1.0487200021743774
3	0x4000a8c6a0000000	2.0824100971221924
4	0xbff2ab3c60000000	-1.166805624961853
5	0xbfea61cf20000000	-0.8244395852088928
6	0xc0192862a0000000	-6.289438724517822
7	0x3fd9f7b5a0000000	0.4057439863681793
8	0xbfd3f37be0000000	-0.3117360770702362
9	0xc00ea59660000000	-3.830853223800659
10	0xbfedd45500000000	-0.9321694374084473
11	0xbff0a96180000000	-1.0413527488708496
12	0x4000a0ec40000000	2.078575611114502
13	0xbff2b27a00000000	-1.1685733795166016
14	0xbfea658260000000	-0.8248912692070007
15	0xc019621120000000	-6.345768451690674
16	0x3fd9ec4ec0000000	0.40504807233810425
17	0xbfd3f1a6c0000000	-0.3116242289543152
18	0xc00ea87800000000	-3.8322601318359375
19	0xbfede5a2c0000000	-0.9342817068099976
20	0xbff1027820000000	-1.0631028413772583
21	0x4000b2c9e0000000	2.087299108505249
22	0xbff2b64780000000	-1.169501781463623
23	0xbfea52aa00000000	-0.8225908279418945
24	0xc017a875e0000000	-5.9145121574401855
25	0x3fd9efb660000000	0.40525588393211365
26	0xbfd41844e0000000	-0.3139812648296356
27	0xc00e9c62c0000000	-3.8263602256774902
28	0xbfedca2fe0000000	-0.930931031703949
29	0xbff0982700000000	-1.0371465682983398
30	0x400096c760000000	2.073622465133667
31	0xbff2ace820000000	-1.1672135591506958
32	0xbfea5352e0000000	-0.8226713538169861
33	0xc019844100000000	-6.379154205322266
34	0x3fd9ee9e60000000	0.4051891267299652
35	0xbfd4123100000000	-0.313610315322876
36	0xc00eb27660000000	-3.837139844894409
37	0xbfedd6fa20000000	-0.9324923157691956
38	0xbff1f2e200000000	-1.1217975616455078
39	0x4000820520000000	2.063486337661743
40	0xbff2b8b140000000	-1.170090913772583
41	0xbfea3ef1c0000000	-0.8201836347579956
42	0xc014ba6320000000	-5.182018756866455
43	0x3fd9f24f20000000	0.4054143726825714
44	0xbfd423d8a0000000	-0.3146878778934479
45	0xc02635f200000000	-11.105361938476562
46	0xbfc8cf3a80000000	-0.19382411241531372
47	0xbfea885ec0000000	-0.8291467428207397
48	0x3ffe8147c0000000	1.9065625667572021
49	0xbfef84a600000000	-0.9849424362182617
50	0xbff15804e0000000	-1.0839890241622925
51	0xc016b1b1e0000000	-5.673530101776123
52	0x3fd8951e60000000	0.3841014802455902
53	0xbfd6638fc0000000	-0.34982675313949585
54	0xc01f516f60000000	-7.829526424407959
55	0xbfc5bdea60000000	-0.16985826194286346
56	0xbfea5f24e0000000	-0.8241142630577087
57	0x3ffe607380000000	1.898547649383545
58	0xbfef9f6140000000	-0.9882055521011353
59	0xbff1550320000000	-1.0832549333572388
60	0xc016d04b60000000	-5.7034125328063965
61	0x3fd88964e0000000	0.38338586688041687
62	0xbfd64bc6e0000000	-0.3483750522136688
63	0xc01dd13ea0000000	-7.45434045791626
64	0xbfcac6f620000000	-0.20919682085514069
65	0xbfea489280000000	-0.8213589191436768
66	0x3ffe6af320000000	1.9011107683181763
67	0xbfefa644a0000000	-0.9890463948249817
68	0xbff152aa60000000	-1.0826820135116577
69	0xc016d7fae0000000	-5.710917949676514
70	0x3fd86f08e0000000	0.3817770183086395
71	0xbfd6245920000000	-0.3459685146808624
72	0xc022512320000000	-9.15847110748291
73	0xbfc8d0bbc0000000	-0.19387003779411316
74	0xbfea356f80000000	-0.8190228939056396
75	0x3ffe7afd20000000	1.9050265550613403
76	0xbfef939ac0000000	-0.9867681264877319
77	0xbff151a160000000	-1.08242928981781
78	0xc016b7e0a0000000	-5.679567813873291
79	0x3fd896c0e0000000	0.3842012584209442
80	0xbfd67140c0000000	-0.3506624102592468
81	0xc025106740000000	-10.532037734985352
82	0xbfc8dd2180000000	-0.19424837827682495
83	0xbfea628600000000	-0.8245267868041992
84	0x3ffe901580000000	1.9101767539978027
85	0xbfef796fe0000000	-0.983573853969574
86	0xbff15b9300000000	-1.0848569869995117
87	0xc016b252e0000000	-5.674144268035889
88	0x3fd8821fa0000000	0.3829421103000641
89	0xbfd66c6ea0000000	-0.3503681719303131
90	0xc02757af80000000	-11.671260833740234
91	0xbfcb4e6100000000	-0.21332943439483643
92	0xbfea5acc80000000	-0.8235838413238525
93	0x40013b08e0000000	2.153825521469116
94	0xbfee6c30e0000000	-0.9507068991661072
95	0xbff239cee0000000	-1.1391133069992065
96	0xc01c93d7e0000000	-7.144378185272217
97	0x3fd67e4420000000	0.3514566719532013
98	0xbfdd4f08c0000000	-0.45794886350631714
99	0xc020c4b6c0000000	-8.384206771850586
100	0xbfcb5bb200000000	-0.21373581886291504
101	0xbfe9dec240000000	-0.808442234992981
102	0x4001157c60000000	2.135491132736206
103	0xbfee7b5dc0000000	-0.9525593519210815
104	0xbff2417ea0000000	-1.140989899635315
105	0xc01ceb0f40000000	-7.229550361633301
106	0x3fd67360e0000000	0.35079213976860046
107	0xbfdd2d5d80000000	-0.455893874168396
108	0xc022ba8760000000	-9.364314079284668
109	0xbfc7dc6a20000000	-0.18641401827335358
110	0xbfe8d297c0000000	-0.7757071256637573
111	0x4000dca2e0000000	2.1077325344085693
112	0xbfee9208a0000000	-0.9553263783454895
113	0xbff22cbf00000000	-1.1359243392944336
114	0xc01d5a7540000000	-7.3383378982543945
115	0x3fd66ae000000000	0.35027313232421875
116	0xbfdd0bfa60000000	-0.45385608077049255
117	0xc021979ac0000000	-8.796102523803711
118	0xbfce114a80000000	-0.23490267992019653
119	0xbfeb9fe0c0000000	-0.8632663488388062
120	0x40017fc2e0000000	2.1873834133148193
121	0xbfeeabfc40000000	-0.9584943056106567
122	0xbff2205000000000	-1.1328887939453125
123	0xc01c01ace0000000	-7.001636028289795
124	0x3fd6745ee0000000	0.35085269808769226
125	0xbfdd277e80000000	-0.45553553104400635
126	0xc022f92ac0000000	-9.486654281616211
127	0xbfcad32a40000000	-0.20956924557685852
128	0xbfea0f19c0000000	-0.8143433332443237
129	0x4001379ac0000000	2.1521506309509277
130	0xbfeeb66560000000	-0.9597651362419128
131	0xbff24364c0000000	-1.141453504562378
132	0xc01cb1a7a0000000	-7.17349100112915
133	0x3fd65ba960000000	0.3493445813655853
134	0xbfdcc8e420000000	-0.44976142048835754
135	0xc00dbd3720000000	-3.717390298843384
136	0x3ffa7cdda0000000	1.6554847955703735
137	0xbff0211600000000	-1.008077621459961
138	0x3ffed79760000000	1.927634596824646
139	0xbff0f5ece0000000	-1.0600403547286987
140	0xbfef018b80000000	-0.9689385890960693
141	0xc01c7a54c0000000	-7.119463920593262
142	0x3fd60b6b40000000	0.34444695711135864
143	0xbfd8f73220000000	-0.39008763432502747
144	0xc00dbfb1e0000000	-3.7186009883880615
145	0x3ffa5b13e0000000	1.6472357511520386
146	0xbff029bea0000000	-1.010191559791565
147	0x3ffece2500000000	1.925328254699707
148	0xbff0f01ea0000000	-1.05862295627594
149	0xbfeefe2120000000	-0.9685216546058655
150	0xc01c55b5a0000000	-7.083700656890869
151	0x3fd6022140000000	0.3438799977302551
152	0xbfd8b33380000000	-0.38593757152557373
153	0xc00de15380000000	-3.73502254486084
154	0x3ffa8ab740000000	1.6588661670684814
155	0xbff095ce00000000	-1.0365734100341797
156	0x3ffeb67b80000000	1.9195513725280762
157	0xbff0f29e00000000	-1.0592327117919922
158	0xbfeef35760000000	-0.967204749584198
159	0xc0169c7a60000000	-5.652810573577881
160	0x3fd60cdcc0000000	0.34453505277633667
161	0xbfd8c0e220000000	-0.38677266240119934
162	0xc00dd916c0000000	-3.7310004234313965
163	0x3ffa9d51e0000000	1.6634081602096558
164	0xbff0a480a0000000	-1.0401617288589478
165	0x3ffeabd860000000	1.9169543981552124
166	0xbff0f2cb00000000	-1.0592756271362305
167	0xbfeef160e0000000	-0.9669651389122009
168	0xc015b2a120000000	-5.424442768096924
169	0x3fd60d16a0000000	0.3445488512516022
170	0xbfd8adece0000000	-0.3856155574321747
171	0xc00dbe37a0000000	-3.7178795337677
172	0x3ffa9cb500000000	1.6632585525512695
173	0xbff06eec60000000	-1.0270808935165405
174	0x3ffec7e5c0000000	1.9238030910491943
175	0xbff0f2dbe0000000	-1.0592917203903198
176	0xbfeef73b20000000	-0.9676795601844788
177	0xc0171d62c0000000	-5.7786970138549805
178	0x3fd604d1c0000000	0.34404414892196655
179	0xbfd8ba93c0000000	-0.38638776540756226
180	0xbff0098780000000	-1.002326488494873
181	0x3fe9f65e00000000	0.8113241195678711
182	0xc007856260000000	-2.940129041671753
183	0x3fcb889380000000	0.21510547399520874
184	0x401396cdc0000000	4.897269248962402
185	0x3fd87eb1c0000000	0.3827328085899353
186	0xc0163b27c0000000	-5.557768821716309
187	0x3fd8a6e940000000	0.38518744707107544
188	0xc0076cb140000000	-2.928072452545166
189	0xbff18b8420000000	-1.0965615510940552
190	0x3fe8d649c0000000	0.7761582136154175
191	0xc005353020000000	-2.650970697402954
192	0x3fce024260000000	0.23444394767284393
193	0x40161ae000000000	5.5262451171875
194	0x3fd5b9d8c0000000	0.33946818113327026
195	0xc01babdaa0000000	-6.917826175689697
196	0x3fd89e7ec0000000	0.3846737742424011
197	0xc00642f940000000	-2.7827019691467285
198	0xbff397cd00000000	-1.2245607376098633
199	0x3fe8d75ac0000000	0.7762883901596069
200	0xc00e925d00000000	-3.8214664459228516
201	0x3fcdece4a0000000	0.23379190266132355
202	0x4006860860000000	2.8154456615448
203	0x3fd7354660000000	0.3626266419887543
204	0xc01b021cc0000000	-6.752062797546387
205	0x3fd8918f40000000	0.3838842511177063
206	0xc004699200000000	-2.5515480041503906
207	0xbff2b622c0000000	-1.1694667339324951
208	0x3fe900c440000000	0.7813435792922974
209	0xc00c943680000000	-3.5723695755004883
210	0x3fc2c83e80000000	0.14673596620559692
211	0x4009b27f20000000	3.2121565341949463
212	0x3fd81b1900000000	0.37665390968322754
213	0xc019012ae0000000	-6.251140117645264
214	0x3fd8957200000000	0.3841214179992676
215	0xc004c64540000000	-2.5968117713928223
216	0xbfe6b1b080000000	-0.7091906070709229
217	0x3ffa67e1a0000000	1.6503616571426392
218	0x4017e58bc0000000	5.974165916442871
219	0x3ff6089fc0000000	1.377105474472046
220	0x40120f8240000000	4.515145301818848
221	0xbfd288b8c0000000	-0.289594829082489
222	0xc000d838e0000000	-2.105577230453491
223	0x4009e84c20000000	3.238426446914673
224	0xc01d713940000000	-7.360569953918457
