data/optimization/optimization_full/optimization_T100_N100/optimization_9_params.npy (npy, 1928 bytes, 1 tensors)

array f8 [5, 5, 9]
000000 00 00 00 60 a6 01 14 c0 00 00 00 60 05 1c e7 3f
       -5.001611232757568 0.7221705317497253
000010 00 00 00 a0 f5 28 f1 bf 00 00 00 40 13 54 00 40
       -1.0724998712539673 2.0410523414611816
000020 00 00 00 e0 a0 b8 f2 bf 00 00 00 40 6d 9f e7 bf
       -1.1700752973556519 -0.7382112741470337
000030 00 00 00 80 f4 81 1c c0 00 00 00 e0 9e 7d d9 3f
       -7.126909255981445 0.39829227328300476
000040 00 00 00 e0 11 38 d5 bf 00 00 00 60 a3 d5 13 c0
       -0.33154723048210144 -4.9586310386657715
000050 00 00 00 80 24 f5 e6 3f 00 00 00 20 2d 02 f1 bf
       0.7174246311187744 -1.0630313158035278
000060 00 00 00 20 4a bf 00 40 00 00 00 20 a3 be f2 bf
       2.0934031009674072 -1.1715422868728638
000070 00 00 00 80 f6 94 e7 bf 00 00 00 a0 7e d1 1b c0
       -0.7369339466094971 -6.95458459854126
000080 00 00 00 e0 45 7c d9 3f 00 00 00 00 18 31 d5 bf
       0.3982100188732147 -0.33112144470214844
000090 00 00 00 00 9f f8 13 c0 00 00 00 e0 10 02 e7 3f
       -4.992794036865234 0.7190021872520447
0000a0 00 00 00 c0 5f a7 f0 bf 00 00 00 a0 05 26 00 40
       -1.040862798690796 2.0185654163360596
0000b0 00 00 00 c0 6f ca f2 bf 00 00 00 40 5d ae e7 bf
       -1.1744229793548584 -0.7400346994400024
0000c0 00 00 00 e0 99 41 1d c0 00 00 00 00 36 68 d9 3f
       -7.314063549041748 0.3969855308532715
0000d0 00 00 00 40 a1 07 d5 bf 00 00 00 c0 e8 f4 13 c0
       -0.3285906910896301 -4.989169120788574
0000e0 00 00 00 60 2e f6 e6 3f 00 00 00 c0 f1 c8 f0 bf
       0.7175514101982117 -1.0490586757659912
0000f0 00 00 00 e0 d2 bc ff 3f 00 00 00 60 1c 91 f2 bf
       1.9835995435714722 -1.160427451133728
000100 00 00 00 60 8a 57 e7 bf 00 00 00 c0 75 cf 1d c0
       -0.7294360995292664 -7.452597618103027
000110 00 00 00 20 41 76 d9 3f 00 00 00 c0 db d0 d5 bf
       0.397842675447464 -0.34087270498275757
000120 00 00 00 c0 ba da 13 c0 00 00 00 80 d5 48 e7 3f
       -4.9636030197143555 0.7276408672332764
000130 00 00 00 00 b7 3e f1 bf 00 00 00 c0 89 4f 01 40
       -1.0778112411499023 2.16383695602417
000140 00 00 00 00 8e ba f2 bf 00 00 00 c0 b8 88 e7 bf
       -1.1705455780029297 -0.735439658164978
000150 00 00 00 40 5a 71 1a c0 00 00 00 00 25 9a d9 3f
       -6.610695838928223 0.40003323554992676
000160 00 00 00 e0 c0 46 d5 bf 00 00 00 60 a6 81 11 c0
       -0.3324434459209442 -4.376611232757568
000170 00 00 00 80 18 9a d3 3f 00 00 00 60 d2 14 fd bf
       0.306280255317688 -1.817583441734314
000180 00 00 00 c0 dc fe e5 3f 00 00 00 c0 3b 28 ea bf
       0.6873611211776733 -0.8174113035202026
000190 00 00 00 20 55 e7 fc bf 00 00 00 60 04 6a 1a c0
       -1.806477665901184 -6.603532314300537
0001a0 00 00 00 60 02 e6 d7 3f 00 00 00 60 49 56 d4 bf
       0.37341365218162537 -0.3177665174007416
0001b0 00 00 00 a0 54 84 11 c0 00 00 00 e0 45 45 d3 3f
       -4.3792290687561035 0.3011030852794647
0001c0 00 00 00 20 d7 93 fd bf 00 00 00 a0 51 75 e7 3f
       -1.848593831062317 0.7330711483955383
0001d0 00 00 00 00 f1 57 ea bf 00 00 00 e0 db ee fc bf
       -0.823235034942627 -1.8083151578903198
0001e0 00 00 00 60 ac 46 19 c0 00 00 00 20 44 e2 d7 3f
       -6.319016933441162 0.3731851875782013
0001f0 00 00 00 e0 22 3d d4 bf 00 00 00 e0 33 88 11 c0
       -0.31623145937919617 -4.383010387420654
000200 00 00 00 00 be ef d1 3f 00 00 00 a0 29 33 fd bf
       0.2802577018737793 -1.8249908685684204
000210 00 00 00 40 58 26 e6 3f 00 00 00 60 c6 42 ea bf
       0.6921807527542114 -0.8206512331962585
000220 00 00 00 80 1e df fc bf 00 00 00 60 6e 53 1a c0
       -1.8044724464416504 -6.581475734710693
000230 00 00 00 c0 16 e6 d7 3f 00 00 00 20 6d 6d d4 bf
       0.37341850996017456 -0.31917884945869446
000240 00 00 00 40 d6 83 11 c0 00 00 00 e0 4e 9a d3 3f
       -4.37874698638916 0.30629321932792664
000250 00 00 00 a0 b8 5c fd bf 00 00 00 00 5c 18 e6 3f
       -1.8351370096206665 0.6904735565185547
000260 00 00 00 c0 c6 0b ea bf 00 00 00 a0 24 ef fc bf
       -0.8139375448226929 -1.8083845376968384
000270 00 00 00 c0 b9 0a 1a c0 00 00 00 c0 47 e6 d7 3f
       -6.51047420501709 0.37343019247055054
000280 00 00 00 a0 ba b6 d4 bf 00 00 00 40 e1 78 11 c0
       -0.32365289330482483 -4.368046760559082
000290 00 00 00 80 76 15 d4 3f 00 00 00 00 4e 5b fd bf
       0.31380999088287354 -1.8347911834716797
0002a0 00 00 00 80 7b fe e5 3f 00 00 00 a0 5a 09 ea bf
       0.6873147487640381 -0.8136418461799622
0002b0 00 00 00 c0 7f fd fc bf 00 00 00 40 d5 83 1a c0
       -1.811889410018921 -6.6287431716918945
0002c0 00 00 00 20 57 c6 d7 3f 00 00 00 c0 a4 61 d3 bf
       0.3714807331562042 -0.302834689617157
0002d0 00 00 00 e0 5d d5 09 c0 00 00 00 e0 ac 23 ce bf
       -3.2291829586029053 -0.2354637235403061
0002e0 00 00 00 40 5f bf f0 bf 00 00 00 a0 4e c4 00 40
       -1.0467216968536377 2.095853090286255
0002f0 00 00 00 20 03 4b f3 bf 00 00 00 c0 28 5f ee bf
       -1.2058135271072388 -0.9491161108016968
000300 00 00 00 40 db 0c 1a c0 00 00 00 80 62 96 da 3f
       -6.512555122375488 0.4154287576675415
000310 00 00 00 c0 48 84 de bf 00 00 00 80 8a 61 0a c0
       -0.47682398557662964 -3.2976274490356445
000320 00 00 00 60 b6 39 d4 bf 00 00 00 80 56 7b f2 bf
       -0.31602248549461365 -1.1551117897033691
000330 00 00 00 00 1a ac ff 3f 00 00 00 20 a1 5b f3 bf
       1.9795169830322266 -1.209870457649231
000340 00 00 00 60 ea 4a ee bf 00 00 00 60 ea 9c 12 c0
       -0.9466449618339539 -4.653237819671631
000350 00 00 00 60 2c a1 da 3f 00 00 00 20 9d bc de bf
       0.41608723998069763 -0.48026207089424133
000360 00 00 00 c0 40 d0 09 c0 00 00 00 c0 58 59 ce bf
       -3.2266860008239746 -0.23710164427757263
000370 00 00 00 a0 2d e8 f0 bf 00 00 00 80 ab b3 00 40
       -1.056684136390686 2.0877294540405273
000380 00 00 00 80 7e 45 f3 bf 00 00 00 40 32 61 ee bf
       -1.2044663429260254 -0.9493647813796997
000390 00 00 00 80 35 73 19 c0 00 00 00 e0 30 7c da 3f
       -6.362508773803711 0.4138300120830536
0003a0 00 00 00 e0 34 96 de bf 00 00 00 a0 98 ed 09 c0
       -0.47791787981987 -3.241013765335083
0003b0 00 00 00 60 6a 28 d0 bf 00 00 00 00 c2 4d f1 bf
       -0.25246676802635193 -1.0814838409423828
0003c0 00 00 00 e0 ea a6 00 40 00 00 00 80 b8 39 f3 bf
       2.081502676010132 -1.201591968536377
0003d0 00 00 00 20 16 47 ee bf 00 00 00 e0 34 a3 17 c0
       -0.9461775422096252 -5.90938138961792
0003e0 00 00 00 a0 91 90 da 3f 00 00 00 60 ee 93 de bf
       0.41507378220558167 -0.47777900099754333
0003f0 00 00 00 c0 41 d4 09 c0 00 00 00 e0 cc 2c ce bf
       -3.2286410331726074 -0.23574219644069672
000400 00 00 00 a0 af f8 f0 bf 00 00 00 40 c0 ba 00 40
       -1.0607143640518188 2.091187000274658
000410 00 00 00 40 84 47 f3 bf 00 00 00 c0 19 52 ee bf
       -1.2049601078033447 -0.9475220441818237
000420 00 00 00 40 06 25 18 c0 00 00 00 20 5f 8e da 3f
       -6.03615665435791 0.41493967175483704
000430 00 00 00 a0 b9 91 de bf 00 00 00 e0 58 1e 11 c0
       -0.4776443541049957 -4.279635906219482
000440 00 00 00 20 00 f4 d7 3f 00 00 00 e0 17 9f ec bf
       0.3742676079273224 -0.8944205641746521
000450 00 00 00 00 14 8d 00 40 00 00 00 60 85 a6 ec bf
       2.0688858032226562 -0.8953272700309753
000460 00 00 00 80 42 df f0 bf 00 00 00 20 af 20 16 c0
       -1.054506778717041 -5.531918048858643
000470 00 00 00 20 3b 53 d9 3f 00 00 00 60 64 b0 d4 bf
       0.3957050144672394 -0.3232661187648773
000480 00 00 00 80 07 06 11 c0 00 00 00 c0 1c 40 db 3f
       -4.255887985229492 0.42578810453414917
000490 00 00 00 20 03 d3 ec bf 00 00 00 60 19 8e 00 40
       -0.9007583260536194 2.0693843364715576
0004a0 00 00 00 e0 59 a5 ec bf 00 00 00 00 6b e1 f0 bf
       -0.8951844573020935 -1.0550336837768555
0004b0 00 00 00 c0 c5 1a 16 c0 00 00 00 60 10 39 d9 3f
       -5.526144981384277 0.3941079080104828
0004c0 00 00 00 20 0a b4 d4 bf 00 00 00 e0 52 12 11 c0
       -0.3234887421131134 -4.267894268035889
0004d0 00 00 00 40 cd 99 da 3f 00 00 00 c0 ac 13 ed bf
       0.4156373143196106 -0.9086517095565796
0004e0 00 00 00 e0 0f 88 00 40 00 00 00 80 56 9b ec bf
       2.066436529159546 -0.8939621448516846
0004f0 00 00 00 a0 b6 e2 f0 bf 00 00 00 60 72 e0 15 c0
       -1.0553499460220337 -5.469186305999756
000500 00 00 00 20 56 30 d9 3f 00 00 00 80 6b c8 d4 bf
       0.3935752213001251 -0.3247326612472534
000510 00 00 00 40 53 0c 11 c0 00 00 00 c0 79 50 d9 3f
       -4.262036323547363 0.3955368399620056
000520 00 00 00 40 86 d4 ec bf 00 00 00 40 9e 8b 00 40
       -0.9009429216384888 2.0681729316711426
000530 00 00 00 a0 b9 a2 ec bf 00 00 00 e0 51 df f0 bf
       -0.8948639035224915 -1.0545214414596558
000540 00 00 00 60 da 20 16 c0 00 00 00 80 ef 3c d9 3f
       -5.532083034515381 0.3943442106246948
000550 00 00 00 a0 8a c1 d4 bf 00 00 00 c0 4b 09 11 c0
       -0.32431283593177795 -4.259078025817871
000560 00 00 00 80 0b a3 da 3f 00 00 00 60 13 e3 ec bf
       0.41620147228240967 -0.9027191996574402
000570 00 00 00 c0 d6 8a 00 40 00 00 00 00 73 97 ec bf
       2.0677924156188965 -0.8934874534606934
000580 00 00 00 40 7f db f0 bf 00 00 00 e0 c6 f7 15 c0
       -1.0535881519317627 -5.491969585418701
000590 00 00 00 a0 4f 3c d9 3f 00 00 00 40 2d 2a d5 bf
       0.39430609345436096 -0.33069926500320435
0005a0 00 00 00 00 77 5f 10 c0 00 00 00 20 ca fd b9 3f
       -4.093227386474609 0.10152877122163773
0005b0 00 00 00 a0 79 9f f1 bf 00 00 00 80 ef ed 00 40
       -1.101434350013733 2.1161794662475586
0005c0 00 00 00 a0 98 9e f0 bf 00 00 00 20 38 26 ee bf
       -1.0387197732925415 -0.9421654343605042
0005d0 00 00 00 c0 88 e6 15 c0 00 00 00 e0 95 e9 d8 3f
       -5.475131034851074 0.38925692439079285
0005e0 00 00 00 00 d7 1c d6 bf 00 00 00 00 6d 7f 10 c0
       -0.34551024436950684 -4.124439239501953
0005f0 00 00 00 00 c3 4b bb 3f 00 00 00 80 c0 16 f2 bf
       0.1066247820854187 -1.1305546760559082
000600 00 00 00 20 14 d8 00 40 00 00 00 e0 16 ae f0 bf
       2.1055071353912354 -1.0425022840499878
000610 00 00 00 e0 08 24 ee bf 00 00 00 00 0a cd 14 c0
       -0.941898763179779 -5.200233459472656
000620 00 00 00 00 60 eb d8 3f 00 00 00 c0 b5 15 d6 bf
       0.38936614990234375 -0.3450750708580017
000630 00 00 00 00 d9 82 10 c0 00 00 00 00 21 87 bb 3f
       -4.127780914306641 0.10753065347671509
000640 00 00 00 00 4d 96 f2 bf 00 00 00 60 59 ae 00 40
       -1.1616945266723633 2.0851314067840576
000650 00 00 00 40 51 b2 f0 bf 00 00 00 00 ec 0b ee bf
       -1.043534517288208 -0.9389553070068359
000660 00 00 00 c0 dd b9 13 c0 00 00 00 e0 f5 ee d8 3f
       -4.931509971618652 0.3895849883556366
000670 00 00 00 a0 ca 2e d6 bf 00 00 00 40 a4 5a 10 c0
       -0.34660592675209045 -4.088517189025879
000680 00 00 00 c0 04 62 bb 3f 00 00 00 80 ea 8c f1 bf
       0.10696439445018768 -1.0969033241271973
000690 00 00 00 00 6c ef 00 40 00 00 00 60 51 9b f0 bf
       2.1169052124023438 -1.0379194021224976
0006a0 00 00 00 00 4e 27 ee bf 00 00 00 20 2a 3a 16 c0
       -0.9422979354858398 -5.5568013191223145
0006b0 00 00 00 c0 be e8 d8 3f 00 00 00 60 37 31 d6 bf
       0.3892056345939636 -0.34675392508506775
0006c0 00 00 00 c0 cb 5e 10 c0 00 00 00 00 ff 91 bb 3f
       -4.092574119567871 0.10769647359848022
0006d0 00 00 00 e0 1e b0 f1 bf 00 00 00 60 ef ef 00 40
       -1.105498194694519 2.1171557903289795
0006e0 00 00 00 80 50 a1 f0 bf 00 00 00 00 4f 26 ee bf
       -1.0393834114074707 -0.942176342010498
0006f0 00 00 00 60 c7 d5 15 c0 00 00 00 e0 a6 d6 d8 3f
       -5.458768367767334 0.3881013095378876
000700 00 00 00 40 c6 3e d6 bf
       -0.3475814461708069
