data/optimization/optimization_full/optimization_T100_N100/optimization_16_params.npy (npy, 1928 bytes, 1 tensors)

array f8 [5, 5, 9]
00000000: 0000 0040 60a5 21c0 0000 00c0 aef9 c7bf
00000010: 0000 0020 966e ecbf 0000 0080 5751 0240
00000020: 0000 0020 8ff3 eabf 0000 00a0 52d8 f2bf
00000030: 0000 0000 88d2 18c0 0000 00e0 c1a8 d83f
00000040: 0000 00e0 418e d9bf 0000 0040 0a37 1fc0
00000050: 0000 0040 7175 c8bf 0000 0020 186c ecbf
00000060: 0000 0040 185f 0240 0000 00c0 85e0 eabf
00000070: 0000 00a0 35c5 f2bf 0000 0040 2ae3 18c0
00000080: 0000 00c0 8e9a d83f 0000 0060 6782 d9bf
00000090: 0000 0080 3f12 27c0 0000 00c0 8a61 c8bf
000000a0: 0000 0000 aa96 ecbf 0000 0080 d835 0240
000000b0: 0000 00c0 00d6 eabf 0000 0060 86be f2bf
000000c0: 0000 0040 9fe5 18c0 0000 0060 689e d83f
000000d0: 0000 0080 5768 d9bf 0000 0080 7e3a 20c0
000000e0: 0000 0020 7ab6 c7bf 0000 0080 42ab ecbf
000000f0: 0000 00a0 a94b 0240 0000 0000 bbea eabf
00000100: 0000 0060 2dd3 f2bf 0000 0020 93db 18c0
00000110: 0000 0000 82a8 d83f 0000 0060 7d89 d9bf
00000120: 0000 0000 2ace 21c0 0000 0020 eb68 c8bf
00000130: 0000 0000 9c77 ecbf 0000 00a0 dd5a 0240
00000140: 0000 0020 09f2 eabf 0000 0080 77d6 f2bf
00000150: 0000 0040 5adc 18c0 0000 00a0 a0ab d83f
00000160: 0000 00a0 c07c d9bf 0000 00e0 2f79 1bc0
00000170: 0000 00e0 3dcc bfbf 0000 0040 fc58 e7bf
00000180: 0000 0020 3094 fd3f 0000 0080 43de f0bf
00000190: 0000 0000 3f8d edbf 0000 00a0 669a 1ec0
000001a0: 0000 0000 416b db3f 0000 00a0 b9c8 d8bf
000001b0: 0000 0000 e808 1bc0 0000 0080 15da bfbf
000001c0: 0000 0040 71a7 e7bf 0000 0040 d2b5 fd3f
000001d0: 0000 0060 cbd9 f0bf 0000 0060 57a2 edbf
000001e0: 0000 0080 cf9f 1ec0 0000 00a0 2d7d db3f
000001f0: 0000 0080 ce2e d9bf 0000 00e0 a5fe 24c0
00000200: 0000 0040 e127 bdbf 0000 0000 657e e7bf
00000210: 0000 0020 f809 fe3f 0000 0060 a6d4 f0bf
00000220: 0000 0080 7ca5 edbf 0000 0080 e8dc 1dc0
00000230: 0000 00a0 765f db3f 0000 0000 aaa9 d8bf
00000240: 0000 0000 2aa6 23c0 0000 0000 6537 b3bf
00000250: 0000 00e0 a620 e9bf 0000 00a0 ca99 fe3f
00000260: 0000 0060 87e6 f0bf 0000 00c0 ff8c edbf
00000270: 0000 00a0 6457 1cc0 0000 0060 f66a db3f
00000280: 0000 00e0 fad7 d8bf 0000 0060 3dac 25c0
00000290: 0000 0080 167a c0bf 0000 00c0 804e e7bf
000002a0: 0000 0060 0d2e fd3f 0000 0060 8de5 f0bf
000002b0: 0000 0060 a7ba edbf 0000 00a0 a39f 1ec0
000002c0: 0000 0060 4963 db3f 0000 00e0 53a7 d8bf
000002d0: 0000 0000 ae1a 15c0 0000 00c0 bf08 febf
000002e0: 0000 0080 8287 f03f 0000 0020 aef2 05c0
000002f0: 0000 0080 5e56 0440 0000 0040 53d3 d4bf
00000300: 0000 0020 cf6e 27c0 0000 0040 294a dd3f
00000310: 0000 0020 6fdf 10c0 0000 0060 b245 12c0
00000320: 0000 00c0 e511 d1bf 0000 00e0 783d efbf
00000330: 0000 0000 fe9b de3f 0000 00a0 0c02 0040
00000340: 0000 0040 3b9f de3f 0000 00e0 d3a3 16c0
00000350: 0000 0020 cf40 dc3f 0000 0000 b564 14c0
00000360: 0000 0000 8022 28c0 0000 00c0 4306 10c0
00000370: 0000 00a0 15dc 0bc0 0000 0080 e85c d0bf
00000380: 0000 0000 2c61 1540 0000 00c0 0035 f3bf
00000390: 0000 0080 6b0b 23c0 0000 0000 7bc0 db3f
000003a0: 0000 0080 0e3d 16c0 0000 0000 a4a5 0dc0
000003b0: 0000 0060 2a8c f8bf 0000 00c0 820d fcbf
000003c0: 0000 0040 b2b2 943f 0000 0020 431c ff3f
000003d0: 0000 0020 b504 e8bf 0000 0000 1b0a 0cc0
000003e0: 0000 0080 5185 dd3f 0000 0040 5ef8 20c0
000003f0: 0000 0060 1445 16c0 0000 00a0 880b f63f
00000400: 0000 0080 2f18 01c0 0000 0040 b3d8 0840
00000410: 0000 0020 bfd8 e2bf 0000 0040 e492 0b40
00000420: 0000 0080 8277 15c0 0000 00e0 b96b dc3f
00000430: 0000 00c0 514e 19c0 0000 0000 c4e8 0cc0
00000440: 0000 00e0 82cb cfbf 0000 0040 388f f5bf
00000450: 0000 0060 5072 fa3f 0000 0040 47fc f0bf
00000460: 0000 00c0 4cc5 edbf 0000 0040 bb72 1cc0
00000470: 0000 00e0 c531 d93f 0000 00c0 c17e dcbf
00000480: 0000 00a0 e2ee 0cc0 0000 00c0 fcd6 cebf
00000490: 0000 00e0 bd13 f5bf 0000 00c0 bcbf f73f
000004a0: 0000 00c0 cf0c f1bf 0000 00e0 55c0 edbf
000004b0: 0000 0040 fbc4 1fc0 0000 0060 e72d d93f
000004c0: 0000 00e0 8383 dcbf 0000 00a0 bff7 0cc0
000004d0: 0000 0080 2839 cfbf 0000 00a0 9107 f5bf
000004e0: 0000 0060 9386 f63f 0000 0040 eb03 f1bf
000004f0: 0000 00e0 78c2 edbf 0000 0000 6b99 20c0
00000500: 0000 0060 152f d93f 0000 00e0 5194 dcbf
00000510: 0000 00c0 a0ee 0cc0 0000 0020 4f89 cfbf
00000520: 0000 00e0 8258 f5bf 0000 0000 e485 f93f
00000530: 0000 0060 f71a f1bf 0000 0020 ffdd edbf
00000540: 0000 00c0 4ed4 1dc0 0000 0000 aa29 d93f
00000550: 0000 0080 4f50 dcbf 0000 00e0 42f8 0cc0
00000560: 0000 00c0 26aa cfbf 0000 00c0 193b f5bf
00000570: 0000 0020 f995 f73f 0000 00e0 a21b f1bf
00000580: 0000 0060 85b8 edbf 0000 0020 52e2 1fc0
00000590: 0000 0000 ca2a d93f 0000 0040 2051 dcbf
000005a0: 0000 00e0 b97a 11c0 0000 0000 d2ca f9bf
000005b0: 0000 0020 c699 f1bf 0000 0080 2541 0040
000005c0: 0000 00e0 f5e2 efbf 0000 00c0 98c7 eebf
000005d0: 0000 0040 4cc4 12c0 0000 0020 c94d dc3f
000005e0: 0000 0000 3509 e0bf 0000 00c0 7f7c 11c0
000005f0: 0000 0080 72d0 f9bf 0000 00e0 7187 f1bf
00000600: 0000 00e0 6a40 0040 0000 00c0 91e1 efbf
00000610: 0000 00a0 d2c4 eebf 0000 0040 9ef2 12c0
00000620: 0000 0020 2254 dc3f 0000 00e0 bec0 dfbf
00000630: 0000 00c0 0d81 11c0 0000 00c0 7ad8 f9bf
00000640: 0000 0080 5b91 f1bf 0000 0080 b039 0040
00000650: 0000 0060 aaea efbf 0000 0040 57c3 eebf
00000660: 0000 0020 0cb8 12c0 0000 00c0 113f dc3f
00000670: 0000 0060 80c0 dfbf 0000 0060 607f 11c0
00000680: 0000 0000 d8d5 f9bf 0000 0020 caa8 f1bf
00000690: 0000 00a0 9d3b 0040 0000 00a0 dddf efbf
000006a0: 0000 00a0 3ec6 eebf 0000 0060 3bc7 12c0
000006b0: 0000 0020 e65c dc3f 0000 0040 23e4 dfbf
000006c0: 0000 0080 0b81 11c0 0000 0000 1ed4 f9bf
000006d0: 0000 0000 8c9c f1bf 0000 0080 df3b 0040
000006e0: 0000 00c0 0edf efbf 0000 0000 07c5 eebf
000006f0: 0000 0060 5aba 12c0 0000 0020 af49 dc3f
00000700: 0000 0020 97d8 dfbf
-8.822999954223633 -0.187307208776474 -0.8884993195533752 2.289717674255371 -0.8422313332557678 -1.177813172340393 -6.205596923828125 0.3853001296520233
-0.3993076980113983 -7.803750038146973 -0.19108405709266663 -0.8881950974464417 2.2964329719543457 -0.8399075269699097 -1.1731468439102173 -6.221840858459473
0.38443344831466675 -0.3985842168331146 -11.535640716552734 -0.19047674536705017 -0.8933916091918945 2.276291847229004 -0.8386234045028687 -1.171514868736267
-6.224240303039551 0.3846684396266937 -0.3969935178756714 -8.114246368408203 -0.1852562576532364 -0.8959057331085205 2.286944627761841 -0.841153621673584
-1.176556944847107 -6.214428424835205 0.3852849006652832 -0.39901670813560486 -8.902664184570312 -0.19070185720920563 -0.8896007537841797 2.294368028640747
-0.8420453667640686 -1.1773600578308105 -6.215188026428223 0.3854753077030182 -0.39823928475379944 -6.868346691131592 -0.12421023100614548 -0.7296124696731567
1.848678708076477 -1.0542635917663574 -0.9234919548034668 -7.650782108306885 0.4284212589263916 -0.3872512876987457 -6.758697509765625 -0.12442144751548767
-0.7391897439956665 1.8568899631500244 -1.0531724691390991 -0.926067054271698 -7.656064987182617 0.4295152723789215 -0.3934818506240845 -10.497359275817871
-0.11388976871967316 -0.7341790199279785 1.8774338960647583 -1.051916480064392 -0.9264509677886963 -7.465730667114258 0.4277016222476959 -0.38535547256469727
-9.824539184570312 -0.07506400346755981 -0.7852358222007751 1.9125467538833618 -1.0562814474105835 -0.9234617948532104 -7.0853447914123535 0.42840346693992615
-0.3881823718547821 -10.836405754089355 -0.1287258267402649 -0.7283328771591187 1.823743224143982 -1.056043028831482 -0.9290348887443542 -7.655897617340088
0.4279349744319916 -0.38521286845207214 -5.276054382324219 -1.877135992050171 1.033083438873291 -2.7434961795806885 2.542172431945801 -0.3253982663154602
-11.716423988342285 0.45765143632888794 -4.218197345733643 -4.568063259124756 -0.2667173743247986 -0.9762539267539978 0.4782710075378418 2.0010006427764893
0.47846871614456177 -5.659987926483154 0.4414556324481964 -5.098346710205078 -12.0673828125 -4.006117820739746 -3.4824631214141846 -0.2556706666946411
5.3448944091796875 -1.2004401683807373 -9.52230453491211 0.4336230754852295 -5.559625625610352 -3.7058792114257812 -1.5342200994491577 -1.7532985210418701
0.020212922245264053 1.9443999528884888 -0.7505746483802795 -3.504934310913086 0.4612621068954468 -8.48509407043457 -5.567460536956787 1.377815842628479
-2.1368093490600586 3.1058106422424316 -0.5889583230018616 3.4467244148254395 -5.366708755493164 0.4440750777721405 -6.326483726501465 -3.6136550903320312
-0.24839816987514496 -1.3474657535552979 1.6529086828231812 -1.061591386795044 -0.9303344488143921 -7.112042427062988 0.3936628997325897 -0.4452366232872009
-3.616643190383911 -0.24093589186668396 -1.3173197507858276 1.4843108654022217 -1.0656278133392334 -0.9297284483909607 -7.942364692687988 0.3934267461299896
-0.445527046918869 -3.6209709644317627 -0.2439318299293518 -1.3143478631973267 1.4078553915023804 -1.0634567737579346 -0.9299892783164978 -8.299644470214844
0.3934987485408783 -0.44655272364616394 -3.6165175437927246 -0.2463778406381607 -1.3341091871261597 1.5951881408691406 -1.069083571434021 -0.9333491921424866
-7.457331657409668 0.39316797256469727 -0.4424017667770386 -3.6212213039398193 -0.2473801076412201 -1.3269288539886475 1.4741145372390747 -1.0692471265792847
-0.9287745356559753 -7.9710164070129395 0.3932366371154785 -0.442451536655426 -4.369849681854248 -1.6120166778564453 -1.100042462348938 2.0318098068237305
-0.9964551329612732 -0.9618648290634155 -4.691697120666504 0.4422476589679718 -0.5011239051818848 -4.371581077575684 -1.6133904457092285 -1.0955675840377808
2.031453847885132 -0.9962853193283081 -0.9615262150764465 -4.736931800842285 0.44263508915901184 -0.496139258146286 -4.376029014587402 -1.6153514385223389
-1.0979876518249512 2.0281686782836914 -0.9973956942558289 -0.9613453149795532 -4.679733753204346 0.44134944677352905 -0.49612435698509216 -4.374391078948975
-1.6147079467773438 -1.1037083864212036 2.029109239578247 -0.9960773587226868 -0.9616997838020325 -4.6945624351501465 0.44317010045051575 -0.49829941987991333
-4.376020431518555 -1.6142864227294922 -1.1007194519042969 2.0292348861694336 -0.9959787130355835 -0.9615511894226074 -4.681985378265381 0.44199731945991516
-0.4975946247577667
