data/optimization/optimization_full/optimization_T300_N1000/optimization_9_params.npy (npy, 1928 bytes, 1 tensors)

array f8 [5, 5, 9]
00000000: 0000 0000 c62c 13c0 0000 0060 7f1a ea3f
00000010: 0000 0000 7396 f0bf 0000 0040 fb4e ff3f
00000020: 0000 00a0 2b6b f0bf 0000 0080 bc8c efbf
00000030: 0000 0020 9112 19c0 0000 00a0 2802 da3f
00000040: 0000 0020 cc11 dabf 0000 0020 2e30 13c0
00000050: 0000 00c0 fe46 ea3f 0000 0080 5f9c f0bf
00000060: 0000 00c0 3046 ff3f 0000 00e0 fe6b f0bf
00000070: 0000 00c0 d28c efbf 0000 0040 eea8 18c0
00000080: 0000 00c0 3708 da3f 0000 0000 d314 dabf
00000090: 0000 0080 057e 13c0 0000 0000 0363 ea3f
000000a0: 0000 0080 9ede f0bf 0000 0060 1a08 ff3f
000000b0: 0000 0000 1a6f f0bf 0000 00a0 ff85 efbf
000000c0: 0000 0080 98ea 15c0 0000 0080 8006 da3f
000000d0: 0000 0080 6c16 dabf 0000 0060 1818 13c0
000000e0: 0000 00c0 bb55 ea3f 0000 0080 4a82 f0bf
000000f0: 0000 0040 1660 ff3f 0000 00c0 426c f0bf
00000100: 0000 00a0 4e94 efbf 0000 00c0 4e80 1ac0
00000110: 0000 0000 4b06 da3f 0000 0060 6615 dabf
00000120: 0000 0060 14f3 12c0 0000 0000 b130 ea3f
00000130: 0000 00c0 1a56 f0bf 0000 0020 2e8e ff3f
00000140: 0000 00a0 b367 f0bf 0000 00c0 d893 efbf
00000150: 0000 0040 63c4 20c0 0000 0080 7702 da3f
00000160: 0000 0040 a513 dabf 0000 00c0 0173 10c0
00000170: 0000 00e0 8716 d63f 0000 0020 0141 f0bf
00000180: 0000 0080 b079 ff3f 0000 0040 7a54 efbf
00000190: 0000 00a0 276c f0bf 0000 0000 21fb 17c0
000001a0: 0000 00c0 d89a d93f 0000 0000 d34d d9bf
000001b0: 0000 0020 60ac 10c0 0000 00a0 1528 d53f
000001c0: 0000 0000 2694 f0bf 0000 00c0 0136 ff3f
000001d0: 0000 0060 d85c efbf 0000 0020 1d67 f0bf
000001e0: 0000 00e0 1feb 14c0 0000 00a0 129c d93f
000001f0: 0000 00e0 fc4e d9bf 0000 0080 0f2f 11c0
00000200: 0000 0080 07de d13f 0000 0080 4f3f f1bf
00000210: 0000 0060 8cb7 fe3f 0000 0040 3a6b efbf
00000220: 0000 00a0 f75d f0bf 0000 0040 1fc6 11c0
00000230: 0000 0040 b89e d93f 0000 00e0 4352 d9bf
00000240: 0000 0040 5569 10c0 0000 0000 1196 d63f
00000250: 0000 00e0 782e f0bf 0000 0060 8184 ff3f
00000260: 0000 0060 9a54 efbf 0000 00a0 106d f0bf
00000270: 0000 0000 f705 19c0 0000 00c0 4a99 d93f
00000280: 0000 00e0 c94c d9bf 0000 0000 2164 10c0
00000290: 0000 0020 f5b3 d63f 0000 0020 7a24 f0bf
000002a0: 0000 0000 ce8b ff3f 0000 00e0 0653 efbf
000002b0: 0000 0080 6d6d f0bf 0000 00c0 e3ea 19c0
000002c0: 0000 0060 ea99 d93f 0000 00a0 564b d9bf
000002d0: 0000 0020 83a1 19c0 0000 0040 4ae7 f2bf
000002e0: 0000 0080 1bec f0bf 0000 0040 a1af fe3f
000002f0: 0000 0040 2e7b f0bf 0000 0020 5ffc eebf
00000300: 0000 00a0 b83a 14c0 0000 00e0 dac7 d93f
00000310: 0000 00e0 b909 dbbf 0000 0080 8fe1 1ac0
00000320: 0000 00c0 eddb f5bf 0000 00c0 5966 f0bf
00000330: 0000 00c0 9b2f ff3f 0000 0080 5976 f0bf
00000340: 0000 0020 2c0c efbf 0000 0040 9de7 16c0
00000350: 0000 0020 7dc1 d93f 0000 0000 ebfb dabf
00000360: 0000 00e0 f31f 1ac0 0000 0060 2d20 f4bf
00000370: 0000 0040 0730 f0bf 0000 0040 5266 ff3f
00000380: 0000 00e0 f96d f0bf 0000 0000 c80e efbf
00000390: 0000 00a0 6379 18c0 0000 0000 4ec0 d93f
000003a0: 0000 0040 e600 dbbf 0000 0080 3e5b 18c0
000003b0: 0000 0020 88fc eebf 0000 00e0 2623 f0bf
000003c0: 0000 0020 2475 ff3f 0000 0000 a96d f0bf
000003d0: 0000 00a0 6413 efbf 0000 00a0 af2c 19c0
000003e0: 0000 0060 bac2 d93f 0000 0040 35fb dabf
000003f0: 0000 00e0 2a0b 19c0 0000 00a0 7fa3 f1bf
00000400: 0000 0000 0047 f0bf 0000 0000 704f ff3f
00000410: 0000 0020 4171 f0bf 0000 0060 560e efbf
00000420: 0000 0020 3adc 17c0 0000 0000 2ec2 d93f
00000430: 0000 00c0 5afe dabf 0000 0020 bece 14c0
00000440: 0000 0060 28bc d03f 0000 0060 71e5 f0bf
00000450: 0000 0020 a0a5 ff3f 0000 00c0 3e3c f0bf
00000460: 0000 0040 0f10 f0bf 0000 0060 a008 14c0
00000470: 0000 0040 c724 da3f 0000 0000 13c5 dabf
00000480: 0000 0080 9756 20c0 0000 00e0 48ae e1bf
00000490: 0000 0080 7500 f2bf 0000 00e0 26c6 fe3f
000004a0: 0000 0040 f547 f0bf 0000 00c0 2d00 f0bf
000004b0: 0000 00a0 2c3a 10c0 0000 00c0 9428 da3f
000004c0: 0000 00a0 6dd9 dabf 0000 00a0 4723 1ac0
000004d0: 0000 0080 be9d d5bf 0000 00c0 49b9 f2bf
000004e0: 0000 00e0 1635 fe3f 0000 0040 8f4f f0bf
000004f0: 0000 0020 26ee efbf 0000 00a0 cfa0 0dc0
00000500: 0000 00e0 5c30 da3f 0000 0020 63d4 dabf
00000510: 0000 0000 8675 14c0 0000 0020 33a8 d43f
00000520: 0000 0020 44c1 f0bf 0000 00a0 0fc3 ff3f
00000530: 0000 0020 b33a f0bf 0000 0080 3912 f0bf
00000540: 0000 0080 75cf 14c0 0000 00c0 251f da3f
00000550: 0000 0000 d1c2 dabf 0000 00a0 4969 14c0
00000560: 0000 00e0 9efa d43f 0000 0000 bbbe f0bf
00000570: 0000 0060 dbc6 ff3f 0000 0000 473a f0bf
00000580: 0000 0020 6912 f0bf 0000 0000 31f6 14c0
00000590: 0000 0020 ee22 da3f 0000 0040 52c6 dabf
000005a0: 0000 0040 c30a 12c0 0000 0040 82f2 ce3f
000005b0: 0000 00c0 33ea efbf 0000 0000 405f ff3f
000005c0: 0000 0000 8c5d efbf 0000 00c0 b76e f0bf
000005d0: 0000 0020 aa9f 19c0 0000 0060 e6dd d93f
000005e0: 0000 00e0 56a4 d9bf 0000 00c0 6498 12c0
000005f0: 0000 0080 5c47 cd3f 0000 0020 1374 f0bf
00000600: 0000 00a0 10f1 fe3f 0000 00e0 bc69 efbf
00000610: 0000 0060 ee66 f0bf 0000 00a0 68ca 14c0
00000620: 0000 00e0 26e5 d93f 0000 0000 98a7 d9bf
00000630: 0000 0040 c9d0 11c0 0000 0060 0396 cf3f
00000640: 0000 0060 9c7e efbf 0000 00c0 8a8f ff3f
00000650: 0000 0000 a458 efbf 0000 00e0 2072 f0bf
00000660: 0000 00c0 fb15 22c0 0000 0040 7eda d93f
00000670: 0000 00a0 c7a1 d9bf 0000 00c0 8026 12c0
00000680: 0000 0060 f76d ce3f 0000 00a0 2f16 f0bf
00000690: 0000 0060 4140 ff3f 0000 0040 7260 efbf
000006a0: 0000 00a0 876d f0bf 0000 0000 14e0 17c0
000006b0: 0000 00a0 71dd d93f 0000 0000 3aa6 d9bf
000006c0: 0000 0000 4623 13c0 0000 00e0 e3f2 cb3f
000006d0: 0000 0080 c9c9 f0bf 0000 0040 55aa fe3f
000006e0: 0000 00a0 5a73 efbf 0000 0000 8271 f0bf
000006f0: 0000 00a0 2e24 13c0 0000 0060 2ae4 d93f
00000700: 0000 0040 39ac d9bf
-4.793724060058594 0.8157345652580261 -1.0367307662963867 1.956782579421997 -1.0261646509170532 -0.9859297275543213 -6.268131732940674 0.406381756067276
-0.4073362648487091 -4.797050952911377 0.8211663961410522 -1.0381770133972168 1.9546363353729248 -1.026366114616394 -0.9859403371810913 -6.164971351623535
0.4067515730857849 -0.40752100944519043 -4.873067855834961 0.8245863914489746 -1.0543503761291504 1.9394782781600952 -1.0271244049072266 -0.9851072430610657
-5.479097366333008 0.40664684772491455 -0.4076186418533325 -4.77353048324585 0.8229655027389526 -1.0318093299865723 1.96095871925354 -1.0264308452606201
-0.9868538975715637 -6.625300407409668 0.4066340923309326 -0.4075561463832855 -4.737382411956787 0.818443775177002 -1.0210216045379639 1.9722119569778442
-1.0253177881240845 -0.9867976903915405 -8.383569717407227 0.40640056133270264 -0.40744906663894653 -4.112311363220215 0.3451251685619354 -1.015870213508606
1.9672093391418457 -0.9790621995925903 -1.0264049768447876 -5.995243072509766 0.40007609128952026 -0.39537501335144043 -4.168335437774658 0.33057156205177307
-1.0361690521240234 1.9506852626800537 -0.9800836443901062 -1.0251742601394653 -5.229613780975342 0.40015092492103577 -0.3954460322856903 -4.295957565307617
0.27917659282684326 -1.0779566764831543 1.9198116064071655 -0.9818392992019653 -1.0229412317276 -4.443478584289551 0.40031248331069946 -0.3956460654735565
-4.1028642654418945 0.3529093265533447 -1.0113457441329956 1.969849944114685 -0.9790775179862976 -1.0266271829605103 -6.255825042724609 0.39998120069503784
-0.39531180262565613 -4.097782135009766 0.35473373532295227 -1.0089055299758911 1.9716320037841797 -0.9788851141929626 -1.0267157554626465 -6.479384422302246
0.40001925826072693 -0.3952232897281647 -6.407726764678955 -1.1814672946929932 -1.0576434135437012 1.9178783893585205 -1.0300734043121338 -0.9683070778846741
-5.057344913482666 0.40282317996025085 -0.4224686324596405 -6.720273971557617 -1.3661935329437256 -1.0249879360198975 1.9491231441497803 -1.0288939476013184
-0.9702358841896057 -5.7261857986450195 0.4024346172809601 -0.42162585258483887 -6.531203746795654 -1.257855772972107 -1.011725664138794 1.9624807834625244
-1.026849627494812 -0.9705543518066406 -6.118544101715088 0.4023623466491699 -0.42192989587783813 -6.089105606079102 -0.9683266282081604 -1.0085819959640503
1.9660989046096802 -1.0267724990844727 -0.9711173176765442 -6.293638706207275 0.40251025557518005 -0.42158252000808716 -6.260905742645264 -1.1024166345596313
-1.017333984375 1.9568939208984375 -1.027649998664856 -0.9705001711845398 -5.9650654792785645 0.40247678756713867 -0.42177456617355347 -5.201897144317627
0.2614842355251312 -1.0560163259506226 1.9779359102249146 -1.0147082805633545 -1.0039207935333252 -5.008424282073975 0.408494770526886 -0.41827845573425293
-8.169124603271484 -0.552524983882904 -1.1251120567321777 1.9233769178390503 -1.0175678730010986 -1.0000436305999756 -4.0568108558654785 0.40872687101364136
-0.419520765542984 -6.53445291519165 -0.33775293827056885 -1.170236349105835 1.8879612684249878 -1.0194237232208252 -0.9978209137916565 -3.7035210132598877
0.40920183062553406 -0.41921308636665344 -5.114768981933594 0.32276609539985657 -1.0471841096878052 1.9851223230361938 -1.0143309831619263 -1.0044493675231934
-5.202596664428711 0.4081510901451111 -0.4181406497955322 -5.102819919586182 0.32779666781425476 -1.046565055847168 1.9860490560531616 -1.0142278671264648
-1.0044947862625122 -5.240421295166016 0.40838196873664856 -0.4183545708656311 -4.510510444641113 0.241775780916214 -0.997339129447937 1.96075439453125
-0.9801692962646484 -1.0270307064056396 -6.4059224128723145 0.4041686952114105 -0.40065547823905945 -4.648821830749512 0.22874027490615845 -1.0283385515213013
1.9338537454605103 -0.9816574454307556 -1.0251296758651733 -5.197664737701416 0.4046113193035126 -0.40085411071777344 -4.453892707824707 0.24676553905010223
-0.984205424785614 1.9725444316864014 -0.9795703887939453 -1.0278633832931519 -9.042936325073242 0.4039607644081116 -0.40049925446510315 -4.537600517272949
0.23773090541362762 -1.0054165124893188 1.953187346458435 -0.9805232286453247 -1.0267406702041626 -5.9688262939453125 0.4041408598423004 -0.4007706642150879
-4.784446716308594 0.21834991872310638 -1.0492644309997559 1.9165852069854736 -0.9828312993049622 -1.0277118682861328 -4.78533411026001 0.40455111861228943
-0.40113669633865356
