data/optimization/optimization_full/optimization_T300_N1000/optimization_3_params.npy (npy, 1928 bytes, 1 tensors)

array f8 [5, 5, 9]
000000 00 00 00 e0 49 9b 12 c0 00 00 00 a0 3d 6d eb bf
       -4.651648998260498 -0.8570850491523743
000010 00 00 00 60 96 ae f0 bf 00 00 00 c0 e0 df ff 3f
       -1.0426238775253296 1.9921576976776123
000020 00 00 00 60 e4 49 ef bf 00 00 00 80 52 12 f0 bf
       -0.9777700304985046 -1.0044732093811035
000030 00 00 00 00 62 55 13 c0 00 00 00 a0 89 af d9 3f
       -4.833381652832031 0.40133896470069885
000040 00 00 00 60 f6 b1 d9 bf 00 00 00 20 f3 36 12 c0
       -0.40148696303367615 -4.553661823272705
000050 00 00 00 c0 f3 dd e9 bf 00 00 00 60 01 5b f0 bf
       -0.808343768119812 -1.022218108177185
000060 00 00 00 60 2d 11 00 40 00 00 00 c0 5c 43 ef bf
       2.008387327194214 -0.9769729375839233
000070 00 00 00 c0 6d 17 f0 bf 00 00 00 80 0f 14 15 c0
       -1.0057199001312256 -5.269590377807617
000080 00 00 00 80 6d ae d9 3f 00 00 00 c0 4f b6 d9 bf
       0.4012712240219116 -0.40175241231918335
000090 00 00 00 80 a8 e9 11 c0 00 00 00 e0 d8 93 e8 bf
       -4.478181838989258 -0.7680477499961853
0000a0 00 00 00 80 b8 0d f0 bf 00 00 00 20 0d 31 00 40
       -1.003349781036377 2.0239508152008057
0000b0 00 00 00 20 91 3a ef bf 00 00 00 00 42 1c f0 bf
       -0.9758992791175842 -1.0068988800048828
0000c0 00 00 00 20 70 9d 17 c0 00 00 00 c0 ee ae d9 3f
       -5.903748035430908 0.4013020396232605
0000d0 00 00 00 60 f9 b4 d9 bf 00 00 00 e0 19 51 12 c0
       -0.40167078375816345 -4.579200267791748
0000e0 00 00 00 00 ed 65 ea bf 00 00 00 20 15 60 f0 bf
       -0.8249421119689941 -1.023457646369934
0000f0 00 00 00 80 1b 10 00 40 00 00 00 c0 ff 3e ef bf
       2.0078649520874023 -0.9764403104782104
000100 00 00 00 a0 66 17 f0 bf 00 00 00 60 04 ed 14 c0
       -1.0057131052017212 -5.231462001800537
000110 00 00 00 00 3b ae d9 3f 00 00 00 80 b9 b3 d9 bf
       0.401259183883667 -0.40159451961517334
000120 00 00 00 60 53 12 12 c0 00 00 00 20 28 47 e9 bf
       -4.5178961753845215 -0.7899361252784729
000130 00 00 00 40 67 2f f0 bf 00 00 00 00 6f 21 00 40
       -1.011573076248169 2.016324996948242
000140 00 00 00 e0 e3 3f ef bf 00 00 00 40 00 1a f0 bf
       -0.9765490889549255 -1.006347894668579
000150 00 00 00 a0 a0 3d 16 c0 00 00 00 c0 6a ac d9 3f
       -5.560183048248291 0.4011484980583191
000160 00 00 00 60 04 b3 d9 bf 00 00 00 00 2e 94 15 c0
       -0.40155133605003357 -5.394706726074219
000170 00 00 00 00 a3 37 ed 3f 00 00 00 e0 28 73 f0 bf
       0.9130415916442871 -1.028115153312683
000180 00 00 00 20 f3 61 00 40 00 00 00 20 f9 f9 ef bf
       2.0478270053863525 -0.9992642998695374
000190 00 00 00 00 c5 0f f0 bf 00 00 00 20 69 5f 18 c0
       -1.003849983215332 -6.093174457550049
0001a0 00 00 00 40 6d 11 da 3f 00 00 00 80 8d 00 da bf
       0.40731364488601685 -0.40628373622894287
0001b0 00 00 00 a0 2c d6 15 c0 00 00 00 00 15 12 ee 3f
       -5.4591546058654785 0.9397072792053223
0001c0 00 00 00 c0 19 92 f0 bf 00 00 00 60 d2 52 00 40
       -1.0356690883636475 2.040440320968628
0001d0 00 00 00 e0 e3 f8 ef bf 00 00 00 a0 06 0e f0 bf
       -0.9991320967674255 -1.0034242868423462
0001e0 00 00 00 60 72 16 17 c0 00 00 00 c0 6c 14 da 3f
       -5.771920680999756 0.4074966311454773
0001f0 00 00 00 c0 d9 00 da bf 00 00 00 20 e2 c7 15 c0
       -0.40630191564559937 -5.4451985359191895
000200 00 00 00 60 1e ed ed 3f 00 00 00 e0 dd 8d f0 bf
       0.9351951479911804 -1.0346354246139526
000210 00 00 00 00 84 53 00 40 00 00 00 40 1e fd ef bf
       2.0407791137695312 -0.9996482133865356
000220 00 00 00 00 eb 0d f0 bf 00 00 00 40 2d 1f 17 c0
       -1.0033979415893555 -5.7804460525512695
000230 00 00 00 40 14 12 da 3f 00 00 00 20 41 04 da bf
       0.4073534607887268 -0.406509667634964
000240 00 00 00 60 4b 84 15 c0 00 00 00 20 ed 53 ed 3f
       -5.3791937828063965 0.9164949059486389
000250 00 00 00 80 73 6b f0 bf 00 00 00 e0 8c 64 00 40
       -1.026233196258545 2.0490968227386475
000260 00 00 00 80 98 f5 ef bf 00 00 00 60 46 0f f0 bf
       -0.998729944229126 -1.003729224205017
000270 00 00 00 a0 4f ac 18 c0 00 00 00 60 52 13 da 3f
       -6.168272495269775 0.4074293076992035
000280 00 00 00 a0 c5 03 da bf 00 00 00 20 45 75 15 c0
       -0.40648022294044495 -5.364521503448486
000290 00 00 00 00 13 19 ed 3f 00 00 00 00 b1 5d f0 bf
       0.9093108177185059 -1.022873878479004
0002a0 00 00 00 80 40 6d 00 40 00 00 00 a0 21 f6 ef bf
       2.0533456802368164 -0.9987953305244446
0002b0 00 00 00 60 ef 0f f0 bf 00 00 00 a0 9b 5d 19 c0
       -1.0038903951644897 -6.341413974761963
0002c0 00 00 00 80 d0 0c da 3f 00 00 00 a0 99 02 da bf
       0.4070321321487427 -0.4064086973667145
0002d0 00 00 00 20 4e 9d 17 c0 00 00 00 a0 5d a1 f1 bf
       -5.903618335723877 -1.1018959283828735
0002e0 00 00 00 a0 65 8a f0 bf 00 00 00 40 a1 84 fe 3f
       -1.0337883234024048 1.9073803424835205
0002f0 00 00 00 e0 56 82 ef bf 00 00 00 20 e1 1d f0 bf
       -0.9846605658531189 -1.007294774055481
000300 00 00 00 00 51 c7 12 c0 00 00 00 e0 d3 5d da 3f
       -4.694644927978516 0.41197678446769714
000310 00 00 00 80 9f 51 da bf 00 00 00 00 66 2c 16 c0
       -0.4112318754196167 -5.543357849121094
000320 00 00 00 60 74 f8 ec bf 00 00 00 60 09 47 f0 bf
       -0.9053289294242859 -1.0173429250717163
000330 00 00 00 80 b8 ba fe 3f 00 00 00 00 b4 7b ef bf
       1.920586109161377 -0.9838504791259766
000340 00 00 00 00 a1 22 f0 bf 00 00 00 60 b4 e3 13 c0
       -1.0084543228149414 -4.972367763519287
000350 00 00 00 a0 10 5c da 3f 00 00 00 80 ec 50 da bf
       0.41186919808387756 -0.4111891984939575
000360 00 00 00 e0 59 5d 14 c0 00 00 00 e0 e5 70 e4 bf
       -5.091163158416748 -0.6387814879417419
000370 00 00 00 20 3d 2c ef bf 00 00 00 e0 b4 54 ff 3f
       -0.9741502404212952 1.95818030834198
000380 00 00 00 40 85 69 ef bf 00 00 00 e0 64 2c f0 bf
       -0.9816309213638306 -1.0108383893966675
000390 00 00 00 e0 ae bc 18 c0 00 00 00 60 fb 56 da 3f
       -6.184260845184326 0.41155895590782166
0003a0 00 00 00 60 68 48 da bf 00 00 00 00 e3 2c 16 c0
       -0.4106694161891937 -5.543834686279297
0003b0 00 00 00 80 a8 00 ec bf 00 00 00 80 0d 89 f0 bf
       -0.8750803470611572 -1.0334601402282715
0003c0 00 00 00 60 2d 81 fe 3f 00 00 00 60 74 83 ef bf
       1.906537413597107 -0.9847967028617859
0003d0 00 00 00 c0 fb 1d f0 bf 00 00 00 60 99 e0 12 c0
       -1.0073201656341553 -4.719335079193115
0003e0 00 00 00 00 61 5e da 3f 00 00 00 c0 5f 54 da bf
       0.41201043128967285 -0.411399781703949
0003f0 00 00 00 e0 70 67 14 c0 00 00 00 80 fc 6a e4 bf
       -5.101016521453857 -0.6380598545074463
000400 00 00 00 e0 5e 0a ef bf 00 00 00 60 29 66 ff 3f
       -0.9700159430503845 1.9624418020248413
000410 00 00 00 e0 04 66 ef bf 00 00 00 a0 55 2d f0 bf
       -0.9812034964561462 -1.0110679864883423
000420 00 00 00 e0 eb 6b 19 c0 00 00 00 80 8e 56 da 3f
       -6.355391979217529 0.411532998085022
000430 00 00 00 a0 69 48 da bf 00 00 00 40 8c 1c 1b c0
       -0.4106697142124176 -6.777878761291504
000440 00 00 00 e0 24 d6 f2 3f 00 00 00 20 63 2b f0 bf
       1.1772812604904175 -1.0105925798416138
000450 00 00 00 20 a2 2d ff 3f 00 00 00 20 b7 f2 ef bf
       1.9486409425735474 -0.998378336429596
000460 00 00 00 a0 e2 0c f0 bf 00 00 00 60 23 fb 16 c0
       -1.0031458139419556 -5.7452521324157715
000470 00 00 00 80 8d fe d9 3f 00 00 00 60 74 b9 da bf
       0.40616166591644287 -0.41756924986839294
000480 00 00 00 a0 50 05 1a c0 00 00 00 e0 c5 3b f2 3f
       -6.505190372467041 1.1395930051803589
000490 00 00 00 00 a6 d1 ef bf 00 00 00 20 ad 7a ff 3f
       -0.9943418502807617 1.9674502611160278
0004a0 00 00 00 00 71 e5 ef bf 00 00 00 60 00 10 f0 bf
       -0.996757984161377 -1.0039066076278687
0004b0 00 00 00 00 68 69 19 c0 00 00 00 c0 00 02 da 3f
       -6.352935791015625 0.4063722491264343
0004c0 00 00 00 e0 02 b8 da bf 00 00 00 a0 7d 12 1a c0
       -0.4174811542034149 -6.518057346343994
0004d0 00 00 00 20 cc 37 f2 3f 00 00 00 c0 96 d1 ef bf
       1.1386224031448364 -0.9943345785140991
0004e0 00 00 00 60 31 73 ff 3f 00 00 00 e0 21 e7 ef bf
       1.9656232595443726 -0.9969643950462341
0004f0 00 00 00 20 dd 0f f0 bf 00 00 00 60 20 50 19 c0
       -1.0038729906082153 -6.328248500823975
000500 00 00 00 20 a1 fd d9 3f 00 00 00 00 ff b7 da bf
       0.40610530972480774 -0.4174802303314209
000510 00 00 00 60 6c d6 1a c0 00 00 00 60 e6 ba f2 3f
       -6.709397792816162 1.170629858970642
000520 00 00 00 60 2e 1b f0 bf 00 00 00 c0 07 42 ff 3f
       -1.0066360235214233 1.9536206722259521
000530 00 00 00 00 da eb ef bf 00 00 00 e0 3d 0d f0 bf
       -0.9975404739379883 -1.0032328367233276
000540 00 00 00 40 fc 7d 17 c0 00 00 00 e0 75 00 da 3f
       -5.873032569885254 0.4062781035900116
000550 00 00 00 00 62 ba da bf 00 00 00 40 80 28 1a c0
       -0.41762590408325195 -6.539551734924316
000560 00 00 00 e0 dd 4b f2 3f 00 00 00 e0 0e ce ef bf
       1.1435221433639526 -0.9939035773277283
000570 00 00 00 e0 a5 6d ff 3f 00 00 00 80 12 eb ef bf
       1.9642695188522339 -0.9974453449249268
000580 00 00 00 00 7d 10 f0 bf 00 00 00 c0 c8 0b 19 c0
       -1.0040254592895508 -6.261507987976074
000590 00 00 00 c0 57 f8 d9 3f 00 00 00 c0 48 ae da bf
       0.40578263998031616 -0.41688746213912964
0005a0 00 00 00 60 c5 72 12 c0 00 00 00 a0 d0 34 d6 3f
       -4.612081050872803 0.34697356820106506
0005b0 00 00 00 e0 53 05 ef bf 00 00 00 c0 c8 35 00 40
       -0.9694003462791443 2.026261806488037
0005c0 00 00 00 00 eb e7 ee bf 00 00 00 a0 81 45 ef bf
       -0.9658102989196777 -0.9772346615791321
0005d0 00 00 00 00 41 a1 18 c0 00 00 00 60 e9 29 da 3f
       -6.157474517822266 0.4088080823421478
0005e0 00 00 00 20 fc 28 d9 bf 00 00 00 a0 77 81 12 c0
       -0.393126517534256 -4.6264328956604
0005f0 00 00 00 00 26 bd d5 3f 00 00 00 c0 d5 1c ef bf
       0.33966970443725586 -0.9722698926925659
000600 00 00 00 c0 12 2f 00 40 00 00 00 c0 ac eb ee bf
       2.0229849815368652 -0.9662688970565796
000610 00 00 00 a0 ef 45 ef bf 00 00 00 40 d1 f3 17 c0
       -0.9772871136665344 -5.988102912902832
000620 00 00 00 a0 61 29 da 3f 00 00 00 20 c0 24 d9 bf
       0.4087757170200348 -0.3928680717945099
000630 00 00 00 20 14 bb 12 c0 00 00 00 60 c1 90 d3 3f
       -4.682693958282471 0.30571016669273376
000640 00 00 00 20 7c a8 ef bf 00 00 00 40 b9 11 00 40
       -0.989316999912262 2.0086541175842285
000650 00 00 00 80 77 f1 ee bf 00 00 00 a0 23 3c ef bf
       -0.9669759273529053 -0.976091206073761
000660 00 00 00 e0 c5 97 15 c0 00 00 00 a0 06 25 da 3f
       -5.3982157707214355 0.40850988030433655
000670 00 00 00 20 74 27 d9 bf 00 00 00 c0 7d b8 12 c0
       -0.39303305745124817 -4.680167198181152
000680 00 00 00 a0 c8 79 d3 3f 00 00 00 c0 30 a1 ef bf
       0.30430808663368225 -0.9884265661239624
000690 00 00 00 20 e1 12 00 40 00 00 00 60 2d f1 ee bf
       2.009218454360962 -0.9669405817985535
0006a0 00 00 00 c0 05 3c ef bf 00 00 00 20 93 ac 15 c0
       -0.9760769605636597 -5.418529987335205
0006b0 00 00 00 c0 fd 29 da 3f 00 00 00 a0 5d 2b d9 bf
       0.408812940120697 -0.3932718336582184
0006c0 00 00 00 e0 ea dc 12 c0 00 00 00 00 38 ff d1 3f
       -4.715739727020264 0.2812023162841797
0006d0 00 00 00 a0 ba f6 ef bf 00 00 00 e0 90 01 00 40
       -0.9988682866096497 2.0007646083831787
0006e0 00 00 00 60 d7 f5 ee bf 00 00 00 40 ca 37 ef bf
       -0.967509925365448 -0.9755603075027466
0006f0 00 00 00 e0 3c 9a 14 c0 00 00 00 80 66 2b da 3f
       -5.150622844696045 0.4088989496231079
000700 00 00 00 e0 cf 2e d9 bf
       -0.39348217844963074
