data/optimization/optimization_full/optimization_T300_N1000/optimization_2_params.npy (npy, 1928 bytes, 1 tensors)

array f8 [5, 5, 9]
00000000: 0000 0060 a6fa 12c0 0000 0060 1bbb a7bf
00000010: 0000 0000 fc72 f0bf 0000 00a0 10ab ff3f
00000020: 0000 00c0 6270 efbf 0000 00c0 c028 f0bf
00000030: 0000 00a0 92a6 19c0 0000 0080 5dfc d93f
00000040: 0000 00e0 83f1 d9bf 0000 0000 2e36 13c0
00000050: 0000 0060 f290 b1bf 0000 0000 49a9 f0bf
00000060: 0000 0020 e977 ff3f 0000 0080 ea72 efbf
00000070: 0000 0080 3b25 f0bf 0000 0080 0743 17c0
00000080: 0000 0080 7dfd d93f 0000 0020 aaf1 d9bf
00000090: 0000 0000 de6a 15c0 0000 00a0 3818 c9bf
000000a0: 0000 0080 6d69 f1bf 0000 00a0 09d0 fe3f
000000b0: 0000 0020 8c8a efbf 0000 0060 a71b f0bf
000000c0: 0000 00a0 77c2 12c0 0000 00a0 a607 da3f
000000d0: 0000 0000 4df9 d9bf 0000 0080 b8fc 12c0
000000e0: 0000 0020 e7a2 a7bf 0000 00a0 2672 f0bf
000000f0: 0000 00c0 b7a9 ff3f 0000 00a0 dc71 efbf
00000100: 0000 00a0 b128 f0bf 0000 00e0 2b94 19c0
00000110: 0000 0020 30fe d93f 0000 0000 11ef d9bf
00000120: 0000 0060 7cf1 12c0 0000 00c0 0609 a6bf
00000130: 0000 0060 d966 f0bf 0000 0040 55b4 ff3f
00000140: 0000 00c0 2872 efbf 0000 0000 f529 f0bf
00000150: 0000 0020 0358 1ac0 0000 00a0 02fb d93f
00000160: 0000 0020 b7ee d9bf 0000 00a0 b713 1dc0
00000170: 0000 0040 2143 f1bf 0000 00c0 993a f0bf
00000180: 0000 0040 6657 ff3f 0000 00c0 3ecd efbf
00000190: 0000 0040 dd2b f0bf 0000 0060 9249 16c0
000001a0: 0000 0000 8e17 da3f 0000 0020 ab6d dabf
000001b0: 0000 00c0 2e21 1dc0 0000 00a0 065b f1bf
000001c0: 0000 00c0 b137 f0bf 0000 0080 8d57 ff3f
000001d0: 0000 0000 19ce efbf 0000 00c0 bf2a f0bf
000001e0: 0000 00e0 8a3f 16c0 0000 00c0 ac16 da3f
000001f0: 0000 00c0 0e6e dabf 0000 0080 bd1a 1dc0
00000200: 0000 0000 1d56 f1bf 0000 0040 4533 f0bf
00000210: 0000 00c0 9f58 ff3f 0000 00a0 b8ce efbf
00000220: 0000 0080 fe2b f0bf 0000 0020 064c 16c0
00000230: 0000 00e0 0d1c da3f 0000 0080 1f6c dabf
00000240: 0000 0080 0e58 1dc0 0000 0020 b07b f1bf
00000250: 0000 0080 873d f0bf 0000 0000 1f52 ff3f
00000260: 0000 00a0 29cb efbf 0000 0020 da2b f0bf
00000270: 0000 00c0 8120 16c0 0000 0080 f015 da3f
00000280: 0000 0040 aa6f dabf 0000 0040 72a3 1cc0
00000290: 0000 0060 0476 f0bf 0000 00a0 5132 f0bf
000002a0: 0000 0040 c659 ff3f 0000 0040 98cc efbf
000002b0: 0000 0020 4f2a f0bf 0000 00a0 615a 16c0
000002c0: 0000 0080 9814 da3f 0000 00c0 536e dabf
000002d0: 0000 00a0 c148 16c0 0000 0080 bf71 d2bf
000002e0: 0000 00e0 5a25 efbf 0000 0080 560f 0040
000002f0: 0000 0040 8dc9 efbf 0000 0040 88ec efbf
00000300: 0000 0040 b294 17c0 0000 0080 adce d93f
00000310: 0000 00e0 8d48 dabf 0000 00c0 f3c0 15c0
00000320: 0000 0000 4ff1 cebf 0000 0040 7895 eebf
00000330: 0000 0020 8f38 0040 0000 00e0 2fb7 efbf
00000340: 0000 0040 4cf2 efbf 0000 00a0 dbed 1ac0
00000350: 0000 00c0 89cc d93f 0000 0000 cf4b dabf
00000360: 0000 00e0 2a99 15c0 0000 00a0 97ae cdbf
00000370: 0000 00e0 8673 eebf 0000 0000 e839 0040
00000380: 0000 00c0 7fbb efbf 0000 00a0 79f9 efbf
00000390: 0000 0080 c3df 1bc0 0000 0080 02cc d93f
000003a0: 0000 0000 2145 dabf 0000 0000 3d3a 16c0
000003b0: 0000 0060 4023 d2bf 0000 0060 8411 efbf
000003c0: 0000 00c0 ee13 0040 0000 0000 d5c8 efbf
000003d0: 0000 0060 34ee efbf 0000 00c0 d0e0 17c0
000003e0: 0000 0040 d1ce d93f 0000 0080 0f48 dabf
000003f0: 0000 0000 e683 16c0 0000 00e0 58be d3bf
00000400: 0000 0060 c147 efbf 0000 0060 9708 0040
00000410: 0000 0080 88cb efbf 0000 0060 7ceb efbf
00000420: 0000 0040 3b1a 17c0 0000 00a0 c0d2 d93f
00000430: 0000 0060 274f dabf 0000 0080 d0fd 10c0
00000440: 0000 0020 a66e d53f 0000 0040 935d f1bf
00000450: 0000 00e0 87da fe3f 0000 0040 0ba9 efbf
00000460: 0000 00e0 8ad5 efbf 0000 0040 e75c 10c0
00000470: 0000 0040 1a68 da3f 0000 00a0 3096 d9bf
00000480: 0000 00e0 b88b 10c0 0000 00a0 ef3f d63f
00000490: 0000 0060 76fe f0bf 0000 0000 461d ff3f
000004a0: 0000 00c0 b3a3 efbf 0000 00e0 07e0 efbf
000004b0: 0000 0040 a776 11c0 0000 00c0 fc67 da3f
000004c0: 0000 0060 4a92 d9bf 0000 0040 7f0f 0fc0
000004d0: 0000 0060 bb25 d83f 0000 0040 f2de efbf
000004e0: 0000 0020 19d7 ff3f 0000 0060 7b93 efbf
000004f0: 0000 0020 78fb efbf 0000 0080 005c 18c0
00000500: 0000 00c0 9662 da3f 0000 00e0 328c d9bf
00000510: 0000 0040 3cff 0fc0 0000 0000 acad d73f
00000520: 0000 0060 1e77 f0bf 0000 00a0 cb79 ff3f
00000530: 0000 0060 079b efbf 0000 0000 67ed efbf
00000540: 0000 0060 29ac 13c0 0000 00a0 af64 da3f
00000550: 0000 0060 7e92 d9bf 0000 0040 f19d 11c0
00000560: 0000 0080 1f98 d43f 0000 0000 4cd5 f1bf
00000570: 0000 0080 b08d fe3f 0000 00a0 45ac efbf
00000580: 0000 00e0 afc8 efbf 0000 0040 8a87 0ec0
00000590: 0000 0020 aa69 da3f 0000 00e0 f799 d9bf
000005a0: 0000 0020 8e21 15c0 0000 00c0 219d dd3f
000005b0: 0000 0040 5619 f0bf 0000 0020 8fb8 ff3f
000005c0: 0000 0000 350d f0bf 0000 00a0 c35d efbf
000005d0: 0000 00a0 854a 1bc0 0000 0080 8080 d93f
000005e0: 0000 0060 ff1c dabf 0000 0020 f40a 15c0
000005f0: 0000 0020 d986 dd3f 0000 00e0 2009 f0bf
00000600: 0000 0060 e9c5 ff3f 0000 0040 000b f0bf
00000610: 0000 0040 df5e efbf 0000 00c0 8a9f 1cc0
00000620: 0000 0020 d08a d93f 0000 00e0 032b dabf
00000630: 0000 0080 bf62 15c0 0000 0020 e4ed d83f
00000640: 0000 00a0 fe46 f0bf 0000 0060 5a8d ff3f
00000650: 0000 0060 800f f0bf 0000 0040 9757 efbf
00000660: 0000 0060 cfa0 18c0 0000 00a0 b28a d93f
00000670: 0000 0000 2b2f dabf 0000 0000 3227 17c0
00000680: 0000 0080 ca35 e03f 0000 00a0 37ab f0bf
00000690: 0000 0000 9c2f ff3f 0000 0020 c815 f0bf
000006a0: 0000 0040 334d efbf 0000 0080 585a 15c0
000006b0: 0000 0020 f18c d93f 0000 00c0 0a36 dabf
000006c0: 0000 0080 39b3 1dc0 0000 0000 a1dd c93f
000006d0: 0000 0080 00a7 f1bf 0000 00a0 7d53 fe3f
000006e0: 0000 0060 e522 f0bf 0000 00a0 da2c efbf
000006f0: 0000 0080 0a6c 11c0 0000 0000 6b94 d93f
00000700: 0000 0020 523d dabf
-4.744775295257568 -0.04634938761591911 -1.0280723571777344 1.9792639017105103 -0.9824689626693726 -1.0099494457244873 -6.412668704986572 0.406028151512146
-0.405365914106369 -4.802909851074219 -0.06861796230077744 -1.0413293838500977 1.9667750597000122 -0.9827778339385986 -1.0090899467468262 -5.815458297729492
0.40609681606292725 -0.40537503361701965 -5.354362487792969 -0.1960516721010208 -1.0882391929626465 1.9257904291152954 -0.9856625199317932 -1.0067514181137085
-4.6899094581604 0.4067169725894928 -0.4058411121368408 -4.746797561645508 -0.046164724975824356 -1.0278688669204712 1.9789350032806396 -0.9826491475105286
-1.0099350214004517 -6.394698619842529 0.40613940358161926 -0.4052164554595947 -4.735826015472412 -0.04303761571645737 -1.0251096487045288 1.9815266132354736
-0.9826854467391968 -1.0102434158325195 -6.585949420928955 0.40594545006752014 -0.405195027589798 -7.2692551612854 -1.0788891315460205 -1.0143067836761475
1.9588377475738525 -0.9938043355941772 -1.0107090473175049 -5.571847438812256 0.4076876640319824 -0.41294363141059875 -7.282404899597168 -1.0847231149673462
-1.0135972499847412 1.9588751792907715 -0.9939084053039551 -1.010436773300171 -5.562053203582764 0.4076339602470398 -0.41296738386154175 -7.276113510131836
-1.0835237503051758 -1.0125172138214111 1.959136724472046 -0.9939845204353333 -1.0107407569885254 -5.574242115020752 0.40796229243278503 -0.4128493070602417
-7.335992813110352 -1.092697262763977 -1.015021800994873 1.9575490951538086 -0.9935501217842102 -1.0107060670852661 -5.531744956970215 0.4075890779495239
-0.41306549310684204 -7.159615516662598 -1.0288127660751343 -1.0122848749160767 1.9594175815582275 -0.9937249422073364 -1.0103293657302856 -5.588263034820557
0.407507061958313 -0.41298383474349976 -5.571051120758057 -0.28819262981414795 -0.9733099341392517 2.0074892044067383 -0.9933534860610962 -0.9976235628128052
-5.895211219787598 0.4032396078109741 -0.41067835688591003 -5.438429832458496 -0.2417391538619995 -0.9557458162307739 2.0276167392730713 -0.991111695766449
-0.998327374458313 -6.732283115386963 0.40310901403427124 -0.410876989364624 -5.399577617645264 -0.23189063370227814 -0.9516023993492126 2.0282745361328125
-0.9916380643844604 -0.9992035031318665 -6.96851921081543 0.40307676792144775 -0.41046929359436035 -5.556873321533203 -0.28340157866477966 -0.9708883166313171
2.009732723236084 -0.9932656288146973 -0.9978277087211609 -5.969546318054199 0.403248131275177 -0.4106482267379761 -5.628807067871094 -0.30849286913871765
-0.9775092005729675 2.004194974899292 -0.9935953617095947 -0.9974958300590515 -5.775616645812988 0.40348830819129944 -0.4110811650753021 -4.247865676879883
0.33487847447395325 -1.0853455066680908 1.9283522367477417 -0.9893852472305298 -0.9948171973228455 -4.090725898742676 0.4126039147377014 -0.3997918665409088
-4.136447429656982 0.3476523458957672 -1.0621246099472046 1.9446468353271484 -0.988733172416687 -0.9960975050926208 -4.365872383117676 0.4125968813896179
-0.3995538651943207 -3.8825669288635254 0.37730297446250916 -0.9959651231765747 1.9900141954421997 -0.9867531657218933 -0.9994469285011292 -6.089845657348633
0.41226738691329956 -0.3991820514202118 -3.999626636505127 0.36997509002685547 -1.0290817022323608 1.9672352075576782 -0.9876744151115417 -0.9977297782897949
-4.918126583099365 0.4123953878879547 -0.39956626296043396 -4.404240608215332 0.3217848539352417 -1.1145744323730469 1.9095921516418457 -0.9897792935371399
-0.993247926235199 -3.8161816596984863 0.41269925236701965 -0.4000224769115448 -5.282768726348877 0.4627155661582947 -1.00618577003479 1.9825583696365356
-1.0032243728637695 -0.9801958203315735 -6.822775363922119 0.39846813678741455 -0.40801987051963806 -5.260696887969971 0.4613554775714874 -1.0022286176681519
1.9858182668685913 -1.002685785293579 -0.9803310632705688 -7.1558027267456055 0.3990974724292755 -0.408875435590744 -5.346433639526367 0.38951972126960754
-1.017332673072815 1.9720100164413452 -1.0037845373153687 -0.9794422388076782 -6.157041072845459 0.399090439081192 -0.40912890434265137 -5.788276672363281
0.5065662860870361 -1.04180109500885 1.9491233825683594 -1.0053178071975708 -0.9781738519668579 -5.338228225708008 0.39922741055488586 -0.40954846143722534
-7.425024032592773 0.20207607746124268 -1.1032719612121582 1.8953834772109985 -1.0085195302963257 -0.9742253422737122 -4.355508804321289 0.39968371391296387
-0.4099927246570587
