data/optimization/optimization_full/optimization_T300_N1000/optimization_17_params.npy (npy, 1928 bytes, 1 tensors)

array f8 [5, 5, 9]
00000000: 0000 0060 6d6f 12c0 0000 00c0 5c0d e7bf
00000010: 0000 0080 1cf8 efbf 0000 00a0 7e76 ff3f
00000020: 0000 00e0 a8cf efbf 0000 00a0 005d f0bf
00000030: 0000 00c0 d3de 16c0 0000 00e0 adf9 d93f
00000040: 0000 00c0 5298 d9bf 0000 0060 6c8f 12c0
00000050: 0000 00e0 92b1 e7bf 0000 0040 7d14 f0bf
00000060: 0000 0080 b064 ff3f 0000 00a0 10d1 efbf
00000070: 0000 0040 ac5b f0bf 0000 00a0 f11a 16c0
00000080: 0000 00a0 5afb d93f 0000 0020 589a d9bf
00000090: 0000 00c0 def5 12c0 0000 00c0 a7a4 e9bf
000000a0: 0000 0060 ed55 f0bf 0000 0000 8231 ff3f
000000b0: 0000 0020 efd5 efbf 0000 0060 9d57 f0bf
000000c0: 0000 00e0 0a6a 14c0 0000 00a0 1dfe d93f
000000d0: 0000 0060 a79e d9bf 0000 0040 1973 12c0
000000e0: 0000 00c0 de1f e7bf 0000 0040 aef9 efbf
000000f0: 0000 0080 3675 ff3f 0000 00c0 32cf efbf
00000100: 0000 00c0 a55c f0bf 0000 0060 ddd5 16c0
00000110: 0000 00a0 33ff d93f 0000 0060 1599 d9bf
00000120: 0000 0020 22c2 12c0 0000 00a0 39b3 e8bf
00000130: 0000 0020 3338 f0bf 0000 0040 7247 ff3f
00000140: 0000 0060 10d3 efbf 0000 0060 2459 f0bf
00000150: 0000 00c0 5620 15c0 0000 0000 52fd d93f
00000160: 0000 00e0 bd9d d9bf 0000 0040 ee0f 16c0
00000170: 0000 0020 6000 e1bf 0000 00a0 2076 f0bf
00000180: 0000 0040 4145 0040 0000 00a0 e705 f0bf
00000190: 0000 00a0 92eb efbf 0000 0080 dfdc 14c0
000001a0: 0000 0000 0ff4 d93f 0000 0000 b244 d9bf
000001b0: 0000 0020 844a 15c0 0000 0020 fead dcbf
000001c0: 0000 00e0 f51a f0bf 0000 0060 f46f 0040
000001d0: 0000 0080 2c00 f0bf 0000 0040 0eec efbf
000001e0: 0000 0060 e33b 17c0 0000 0060 04f1 d93f
000001f0: 0000 00c0 4a44 d9bf 0000 00a0 5333 16c0
00000200: 0000 0060 7959 e1bf 0000 0060 528b f0bf
00000210: 0000 0020 083b 0040 0000 0000 6706 f0bf
00000220: 0000 0020 51e8 efbf 0000 0040 3476 14c0
00000230: 0000 0080 abf5 d93f 0000 00e0 1f4a d9bf
00000240: 0000 0020 0e05 16c0 0000 0000 4edb e0bf
00000250: 0000 0060 fe6c f0bf 0000 0060 e148 0040
00000260: 0000 00e0 1306 f0bf 0000 0080 edec efbf
00000270: 0000 0040 4602 15c0 0000 00c0 fcef d93f
00000280: 0000 00a0 b947 d9bf 0000 0000 0a89 15c0
00000290: 0000 0000 d277 debf 0000 00a0 1c37 f0bf
000002a0: 0000 0040 fa61 0040 0000 0060 2d02 f0bf
000002b0: 0000 0060 9af1 efbf 0000 0060 bc5b 16c0
000002c0: 0000 0040 29ee d93f 0000 00e0 cb4d d9bf
000002d0: 0000 00c0 cd94 11c0 0000 0080 9314 e03f
000002e0: 0000 00e0 34b3 efbf 0000 0060 410f 0040
000002f0: 0000 00a0 aee8 eebf 0000 00c0 20a0 f0bf
00000300: 0000 00c0 bdde 19c0 0000 00a0 ee62 da3f
00000310: 0000 0020 8af7 dabf 0000 0020 a1ed 11c0
00000320: 0000 00a0 5415 de3f 0000 00e0 133d f0bf
00000330: 0000 00c0 23d4 ff3f 0000 00e0 8ef3 eebf
00000340: 0000 00a0 869a f0bf 0000 0080 1880 15c0
00000350: 0000 0020 d163 da3f 0000 0000 aeff dabf
00000360: 0000 00c0 3807 12c0 0000 00a0 9bb5 dc3f
00000370: 0000 0040 4156 f0bf 0000 0040 86bb ff3f
00000380: 0000 0040 63f8 eebf 0000 00c0 8e99 f0bf
00000390: 0000 0040 9194 14c0 0000 0000 2a64 da3f
000003a0: 0000 0060 e4ff dabf 0000 0000 5ea8 13c0
000003b0: 0000 0040 0951 cd3f 0000 0060 ad9d f1bf
000003c0: 0000 00e0 9dcc fe3f 0000 0040 600f efbf
000003d0: 0000 00c0 c186 f0bf 0000 0060 c408 10c0
000003e0: 0000 0040 d76b da3f 0000 0080 140c dbbf
000003f0: 0000 00c0 1cc3 11c0 0000 00c0 1a59 df3f
00000400: 0000 00e0 d60c f0bf 0000 0080 07f7 ff3f
00000410: 0000 00a0 dfef eebf 0000 0060 5b9d f0bf
00000420: 0000 00a0 3708 17c0 0000 0000 4a63 da3f
00000430: 0000 00a0 e1fd dabf 0000 0000 08e5 12c0
00000440: 0000 0080 8c61 c6bf 0000 0000 f66e f0bf
00000450: 0000 0000 27b0 ff3f 0000 00c0 9843 f0bf
00000460: 0000 00c0 0929 f0bf 0000 00c0 5187 16c0
00000470: 0000 00e0 4787 da3f 0000 00a0 7a4d dabf
00000480: 0000 00c0 4874 13c0 0000 0080 c1eb d1bf
00000490: 0000 0000 32be f0bf 0000 00c0 7a73 ff3f
000004a0: 0000 0040 cc46 f0bf 0000 0080 b324 f0bf
000004b0: 0000 00a0 ed5b 14c0 0000 0080 d38a da3f
000004c0: 0000 00a0 e652 dabf 0000 0060 de4c 14c0
000004d0: 0000 0080 f9ea dabf 0000 00a0 a426 f1bf
000004e0: 0000 0040 6623 ff3f 0000 00e0 da4b f0bf
000004f0: 0000 00c0 901f f0bf 0000 0080 6d79 12c0
00000500: 0000 0020 108c da3f 0000 00a0 a755 dabf
00000510: 0000 00c0 10c1 12c0 0000 0020 0a92 c3bf
00000520: 0000 0000 0d53 f0bf 0000 0040 3ec5 ff3f
00000530: 0000 0040 3743 f0bf 0000 00c0 072b f0bf
00000540: 0000 0080 e5ad 17c0 0000 0040 5e84 da3f
00000550: 0000 00c0 fd48 dabf 0000 00e0 058f 13c0
00000560: 0000 0060 7369 d3bf 0000 0000 98cf f0bf
00000570: 0000 00c0 e165 ff3f 0000 0020 3e48 f0bf
00000580: 0000 0000 3c24 f0bf 0000 00a0 67fd 13c0
00000590: 0000 0060 e38c da3f 0000 0060 2751 dabf
000005a0: 0000 00e0 9d3b 11c0 0000 00a0 5949 ecbf
000005b0: 0000 0060 374a f0bf 0000 0040 8caf ff3f
000005c0: 0000 0040 2cdb efbf 0000 00c0 29b7 f0bf
000005d0: 0000 0040 1375 21c0 0000 0040 5f2b da3f
000005e0: 0000 00c0 9e28 d9bf 0000 0040 b44b 11c0
000005f0: 0000 0060 8c72 ecbf 0000 0080 6c6b f0bf
00000600: 0000 0060 918f ff3f 0000 0080 75dd efbf
00000610: 0000 0080 20b5 f0bf 0000 0060 859c 1bc0
00000620: 0000 0020 c929 da3f 0000 00a0 4932 d9bf
00000630: 0000 0000 4040 11c0 0000 00a0 7059 ecbf
00000640: 0000 0040 5d54 f0bf 0000 00a0 faa3 ff3f
00000650: 0000 0040 e0da efbf 0000 0080 4cb6 f0bf
00000660: 0000 0020 b865 1fc0 0000 0080 9631 da3f
00000670: 0000 0080 bc25 d9bf 0000 0060 4759 11c0
00000680: 0000 0080 519b ecbf 0000 00c0 177f f0bf
00000690: 0000 0060 8475 ff3f 0000 0080 c1e2 efbf
000006a0: 0000 00c0 17b4 f0bf 0000 0060 b4cc 19c0
000006b0: 0000 0000 802b da3f 0000 0040 ed2d d9bf
000006c0: 0000 0040 d13b 11c0 0000 0020 4e50 ecbf
000006d0: 0000 0040 0b59 f0bf 0000 00a0 19a4 ff3f
000006e0: 0000 0020 b9d9 efbf 0000 00e0 d7b6 f0bf
000006f0: 0000 0080 6e69 20c0 0000 0000 b22c da3f
00000700: 0000 0080 c129 d9bf
-4.608815670013428 -0.7203811407089233 -0.9990370273590088 1.966429352760315 -0.9940990805625916 -1.0227056741714478 -5.717604637145996 0.4058642089366913
-0.39992207288742065 -4.640061855316162 -0.7404264807701111 -1.0050022602081299 1.9620823860168457 -0.9942706227302551 -1.022381067276001 -5.526312351226807
0.4059664309024811 -0.4000454246997833 -4.740107536315918 -0.8013495206832886 -1.020978331565857 1.9495868682861328 -0.9948650002479553 -1.0213903188705444
-5.103557109832764 0.4061349928379059 -0.4003084599971771 -4.612401008605957 -0.7226403951644897 -0.9992285966873169 1.9661164283752441 -0.9940427541732788
-1.0226190090179443 -5.708852291107178 0.4062012732028961 -0.3999684751033783 -4.6895833015441895 -0.7718780636787415 -1.0137206315994263 1.9549429416656494
-0.9945146441459656 -1.0217632055282593 -5.281580924987793 0.40608644485473633 -0.4002527892589569 -5.515557289123535 -0.5312958359718323 -1.0288397073745728
2.033815860748291 -1.0014415979385376 -0.9975064396858215 -5.215696334838867 0.4055211544036865 -0.3948178291320801 -5.322769641876221 -0.4481196701526642
-1.0065821409225464 2.0546653270721436 -1.00004243850708 -0.9975653886795044 -5.8084845542907715 0.40533551573753357 -0.39479321241378784 -5.550123691558838
-0.5421721339225769 -1.034014105796814 2.0288240909576416 -1.0015630722045898 -0.9971089959144592 -5.115433692932129 0.4056195020675659 -0.39514920115470886
-5.504936695098877 -0.5267705917358398 -1.0266097784042358 2.03558611869812 -1.0014837980270386 -0.9976718425750732 -5.25222110748291 0.4052726626396179
-0.3950027525424957 -5.383827209472656 -0.47606325149536133 -1.0134550333023071 2.0478405952453613 -1.000531554222107 -0.9982425570487976 -5.589585781097412
0.40516120195388794 -0.39537331461906433 -4.395316123962402 0.502511739730835 -0.99062579870224 2.00744891166687 -0.9659035801887512 -1.0390937328338623
-6.467520713806152 0.4122883379459381 -0.4213586151599884 -4.482059955596924 0.47005191445350647 -1.0149115324020386 1.9892919063568115 -0.9672312140464783
-1.0377260446548462 -5.375093460083008 0.4123423397541046 -0.42185544967651367 -4.507052421569824 0.4485844671726227 -1.0210583209991455 1.9832823276519775
-0.9678207635879517 -1.037489652633667 -5.145085334777832 0.41236352920532227 -0.4218684136867523 -4.914421081542969 0.22903552651405334 -1.100995421409607
1.9249552488327026 -0.970626950263977 -1.0328996181488037 -4.008561611175537 0.4128320813179016 -0.4226123094558716 -4.440539360046387 0.48981350660324097
-1.0031346082687378 1.997809886932373 -0.9667814373970032 -1.0384172201156616 -5.7580246925354 0.4123101234436035 -0.4217456877231598 -4.723663330078125
-0.17485195398330688 -1.027090072631836 1.9805059432983398 -1.016503095626831 -1.010019063949585 -5.632147789001465 0.4145068824291229 -0.41097894310951233
-4.863558769226074 -0.28001439571380615 -1.0464344024658203 1.9656932353973389 -1.017284631729126 -1.008960247039795 -5.089773654937744 0.41472327709198
-0.4113098680973053 -5.075067043304443 -0.42059171199798584 -1.0719343423843384 1.9461424350738525 -1.0185192823410034 -1.0077064037322998 -4.618581771850586
0.414798766374588 -0.4114779531955719 -4.688540458679199 -0.1528942734003067 -1.0202760696411133 1.9856550693511963 -1.0164101123809814 -1.0105054378509521
-5.919820785522461 0.4143291115760803 -0.410705029964447 -4.8896708488464355 -0.30331119894981384 -1.0506820678710938 1.9623734951019287 -1.0176373720169067
-1.0088462829589844 -4.99746561050415 0.4148491322994232 -0.4112032353878021 -4.3082194328308105 -0.883953869342804 -1.018119215965271 1.980358362197876
-0.9955044984817505 -1.04471755027771 -8.728662490844727 0.4088972210884094 -0.3931042551994324 -4.323929786682129 -0.8889829516410828 -1.02622652053833
1.9725507497787476 -0.9957835674285889 -1.0442204475402832 -6.902852535247803 0.4088003933429718 -0.39369431138038635 -4.312744140625 -0.8859179615974426
-1.0205967426300049 1.9775339365005493 -0.995468258857727 -1.044506549835205 -7.849335193634033 0.4092766046524048 -0.39292824268341064 -4.337186336517334
-0.8939597606658936 -1.0310285091400146 1.9661906957626343 -0.9964301586151123 -1.0439679622650146 -6.449906826019287 0.408905029296875 -0.39342814683914185
-4.308415412902832 -0.8848028779029846 -1.0217392444610596 1.977563500404358 -0.9953275322914124 -1.0446394681930542 -8.205921173095703 0.4089779853820801
-0.39317357540130615
