data/optimization/optimization_full/optimization_T300_N1000/optimization_0_params.npy (npy, 1928 bytes, 1 tensors)

array f8 [5, 5, 9]
000000 00 00 00 80 2c 90 19 c0 00 00 00 c0 0a e2 f5 bf
       -6.39079475402832 -1.3676860332489014
000010 00 00 00 00 d5 e4 f1 bf 00 00 00 00 f2 bd fe 3f
       -1.1183671951293945 1.9213733673095703
000020 00 00 00 e0 9b 89 f0 bf 00 00 00 a0 e9 40 ef bf
       -1.0335959196090698 -0.9766739010810852
000030 00 00 00 20 88 ca 12 c0 00 00 00 20 e8 9d d9 3f
       -4.697784900665283 0.40026286244392395
000040 00 00 00 80 56 8b da bf 00 00 00 40 63 fb 16 c0
       -0.4147545099258423 -5.745495796203613
000050 00 00 00 c0 9a 0a f0 bf 00 00 00 20 93 2a f1 bf
       -1.0025889873504639 -1.0728942155838013
000060 00 00 00 40 7c 74 ff 3f 00 00 00 80 91 7e f0 bf
       1.9659388065338135 -1.030900478363037
000070 00 00 00 c0 79 55 ef bf 00 00 00 20 d0 50 16 c0
       -0.9791840314865112 -5.578918933868408
000080 00 00 00 80 53 96 d9 3f 00 00 00 40 c5 8a da bf
       0.399800181388855 -0.4147198796272278
000090 00 00 00 c0 83 ef 15 c0 00 00 00 20 04 db e9 bf
       -5.483901023864746 -0.8079853653907776
0000a0 00 00 00 40 f7 24 f1 bf 00 00 00 80 ba 74 ff 3f
       -1.0715248584747314 1.9659981727600098
0000b0 00 00 00 60 69 7e f0 bf 00 00 00 c0 f3 53 ef bf
       -1.0308622121810913 -0.978998064994812
0000c0 00 00 00 c0 27 92 16 c0 00 00 00 a0 f1 99 d9 3f
       -5.642729759216309 0.4000209867954254
0000d0 00 00 00 80 5f 85 da bf 00 00 00 60 33 fd 13 c0
       -0.4143904447555542 -4.9972662925720215
0000e0 00 00 00 80 7c b7 d4 bf 00 00 00 40 07 c5 f0 bf
       -0.32369911670684814 -1.048102617263794
0000f0 00 00 00 60 d9 d0 ff 3f 00 00 00 00 f0 78 f0 bf
       1.9884885549545288 -1.0295257568359375
000100 00 00 00 80 83 5f ef bf 00 00 00 60 f9 0e 1b c0
       -0.9804093837738037 -6.764623165130615
000110 00 00 00 e0 b4 91 d9 3f 00 00 00 60 72 81 da bf
       0.399518221616745 -0.41415080428123474
000120 00 00 00 c0 b8 55 14 c0 00 00 00 c0 13 20 db bf
       -5.083712577819824 -0.42383283376693726
000130 00 00 00 e0 f9 e2 f0 bf 00 00 00 00 e8 b3 ff 3f
       -1.055414080619812 1.9814224243164062
000140 00 00 00 e0 e5 7b f0 bf 00 00 00 e0 7c 5e ef bf
       -1.0302485227584839 -0.9802841544151306
000150 00 00 00 20 a8 43 19 c0 00 00 00 00 f6 95 d9 3f
       -6.316071033477783 0.399777889251709
000160 00 00 00 20 0c 7e da bf 00 00 00 00 51 ef 18 c0
       -0.4139433205127716 -6.233707427978516
000170 00 00 00 60 91 d7 f4 bf 00 00 00 20 e0 29 f0 bf
       -1.3026288747787476 -1.0102235078811646
000180 00 00 00 80 96 51 ff 3f 00 00 00 60 ed 58 ef bf
       1.9574189186096191 -0.9796053767204285
000190 00 00 00 80 b1 59 f0 bf 00 00 00 40 25 7d 15 c0
       -1.021897792816162 -5.3722124099731445
0001a0 00 00 00 80 fc ca d9 3f 00 00 00 e0 c2 e4 d9 bf
       0.40301430225372314 -0.4045874774456024
0001b0 00 00 00 e0 ba f3 16 c0 00 00 00 e0 13 7e ed bf
       -5.738017559051514 -0.9216403365135193
0001c0 00 00 00 40 fe 03 f0 bf 00 00 00 80 45 70 ff 3f
       -1.0009748935699463 1.9649100303649902
0001d0 00 00 00 e0 3e 50 ef bf 00 00 00 e0 d9 5b f0 bf
       -0.978545606136322 -1.022424578666687
0001e0 00 00 00 80 fc 7a 16 c0 00 00 00 00 22 cc d9 3f
       -5.62010383605957 0.40308427810668945
0001f0 00 00 00 80 2e e0 d9 bf 00 00 00 60 06 ea 1b c0
       -0.4043079614639282 -6.978539943695068
000200 00 00 00 e0 5f e6 fb bf 00 00 00 00 0d c6 f0 bf
       -1.7437437772750854 -1.0483522415161133
000210 00 00 00 e0 f2 c9 fe 3f 00 00 00 60 51 6b ef bf
       1.9243038892745972 -0.9818503260612488
000220 00 00 00 60 69 50 f0 bf 00 00 00 60 da c8 12 c0
       -1.0196317434310913 -4.696145534515381
000230 00 00 00 c0 3e d0 d9 3f 00 00 00 c0 94 ea d9 bf
       0.4033352732658386 -0.40494269132614136
000240 00 00 00 c0 22 4b 1c c0 00 00 00 c0 c6 a0 fc bf
       -7.0733747482299805 -1.7892520427703857
000250 00 00 00 a0 82 d6 f0 bf 00 00 00 40 1a bc fe 3f
       -1.0523706674575806 1.9209234714508057
000260 00 00 00 80 4c 6a ef bf 00 00 00 00 a7 4e f0 bf
       -0.9817259311676025 -1.0192022323608398
000270 00 00 00 a0 1c 8d 12 c0 00 00 00 20 d5 d1 d9 3f
       -4.6378045082092285 0.403432160615921
000280 00 00 00 60 fa ee d9 bf 00 00 00 a0 d7 8a 18 c0
       -0.40521106123924255 -6.1355881690979
000290 00 00 00 60 aa be f3 bf 00 00 00 a0 8d 0f f0 bf
       -1.2340492010116577 -1.003797173500061
0002a0 00 00 00 e0 a1 66 ff 3f 00 00 00 20 5c 58 ef bf
       1.9625567197799683 -0.9795361161231995
0002b0 00 00 00 80 48 5a f0 bf 00 00 00 60 69 14 16 c0
       -1.0220417976379395 -5.519933223724365
0002c0 00 00 00 20 29 ca d9 3f 00 00 00 20 2d e2 d9 bf
       0.40296390652656555 -0.40442970395088196
0002d0 00 00 00 80 a5 d2 27 c0 00 00 00 e0 14 11 11 c0
       -11.911418914794922 -4.26668119430542
0002e0 00 00 00 c0 2e 89 f1 bf 00 00 00 c0 13 26 ff 3f
       -1.095991849899292 1.946796178817749
0002f0 00 00 00 80 11 6b ef bf 00 00 00 00 e0 25 f0 bf
       -0.9818198680877686 -1.009246826171875
000300 00 00 00 e0 b5 b0 0f c0 00 00 00 00 ed ca d9 3f
       -3.9612843990325928 0.40301060676574707
000310 00 00 00 20 79 6e da bf 00 00 00 00 ac ac 22 c0
       -0.4129927456378937 -9.337249755859375
000320 00 00 00 60 cd a8 09 c0 00 00 00 80 2e 06 f1 bf
       -3.207422971725464 -1.064009189605713
000330 00 00 00 60 8c 8a ff 3f 00 00 00 c0 61 5f ef bf
       1.9713252782821655 -0.9803932905197144
000340 00 00 00 e0 50 2d f0 bf 00 00 00 e0 85 12 11 c0
       -1.0110634565353394 -4.2680888175964355
000350 00 00 00 60 6d c8 d9 3f 00 00 00 a0 dd 6e da bf
       0.40285810828208923 -0.4130167067050934
000360 00 00 00 20 df d1 30 c0 00 00 00 a0 e0 89 18 c0
       -16.81981086730957 -6.134645938873291
000370 00 00 00 a0 f2 bb f1 bf 00 00 00 00 dc 00 ff 3f
       -1.108385682106018 1.9377098083496094
000380 00 00 00 00 6a 6f ef bf 00 00 00 80 30 23 f0 bf
       -0.9823503494262695 -1.0085911750793457
000390 00 00 00 a0 f7 de 0e c0 00 00 00 20 06 cc d9 3f
       -3.8588707447052 0.403077632188797
0003a0 00 00 00 e0 ff 6e da bf 00 00 00 60 4b fa 30 c0
       -0.4130248725414276 -16.977712631225586
0003b0 00 00 00 40 ad bc 18 c0 00 00 00 a0 e5 04 f1 bf
       -6.1842546463012695 -1.0636955499649048
0003c0 00 00 00 e0 ed 8e ff 3f 00 00 00 00 6a 5c ef bf
       1.9723948240280151 -0.9800310134887695
0003d0 00 00 00 c0 d1 2c f0 bf 00 00 00 80 f0 0d 11 c0
       -1.0109422206878662 -4.263612747192383
0003e0 00 00 00 40 da ca d9 3f 00 00 00 80 db 6c da bf
       0.4030061364173889 -0.4128941297531128
0003f0 00 00 00 c0 95 7a 30 c0 00 00 00 c0 b2 fd 17 c0
       -16.47884750366211 -5.9977521896362305
000400 00 00 00 00 75 84 f1 bf 00 00 00 a0 11 2b ff 3f
       -1.0948381423950195 1.9480148553848267
000410 00 00 00 60 a4 6b ef bf 00 00 00 60 42 26 f0 bf
       -0.9818899035453796 -1.0093406438827515
000420 00 00 00 e0 cc bd 0f c0 00 00 00 20 72 ce d9 3f
       -3.9676759243011475 0.40322545170783997
000430 00 00 00 40 54 6d da bf 00 00 00 80 1b 63 19 c0
       -0.4129229187965393 -6.346784591674805
000440 00 00 00 a0 9a 2c f6 bf 00 00 00 80 00 b6 f0 bf
       -1.3858896493911743 -1.0444340705871582
000450 00 00 00 80 10 75 ff 3f 00 00 00 e0 9b b2 f0 bf
       1.9660801887512207 -1.0436056852340698
000460 00 00 00 20 11 97 ee bf 00 00 00 20 04 e6 14 c0
       -0.9559407830238342 -5.224625110626221
000470 00 00 00 a0 cf 96 d9 3f 00 00 00 20 5d 0e da bf
       0.39982977509498596 -0.40712669491767883
000480 00 00 00 e0 fb 46 1e c0 00 00 00 40 b6 c5 ff bf
       -7.569320201873779 -1.985769510269165
000490 00 00 00 a0 f4 92 f1 bf 00 00 00 a0 03 a8 fe 3f
       -1.0983778238296509 1.916019082069397
0004a0 00 00 00 a0 4b bd f0 bf 00 00 00 40 f7 85 ee bf
       -1.0462146997451782 -0.9538532495498657
0004b0 00 00 00 00 ac a0 11 c0 00 00 00 60 02 9d d9 3f
       -4.4069061279296875 0.40020808577537537
0004c0 00 00 00 40 a3 15 da bf 00 00 00 20 e2 ac 19 c0
       -0.40757066011428833 -6.4188313484191895
0004d0 00 00 00 20 57 cb f6 bf 00 00 00 c0 34 c0 f0 bf
       -1.424643635749817 -1.0469253063201904
0004e0 00 00 00 40 65 6b ff 3f 00 00 00 00 ec b2 f0 bf
       1.9637196063995361 -1.0436820983886719
0004f0 00 00 00 c0 4c 96 ee bf 00 00 00 60 aa c1 14 c0
       -0.9558471441268921 -5.189126491546631
000500 00 00 00 60 6c 97 d9 3f 00 00 00 00 ed 0e da bf
       0.39986714720726013 -0.40716099739074707
000510 00 00 00 20 8c 04 18 c0 00 00 00 c0 96 38 f3 bf
       -6.004440784454346 -1.2013156414031982
000520 00 00 00 e0 c0 ac f0 bf 00 00 00 00 80 7e ff 3f
       -1.0421761274337769 1.9683837890625
000530 00 00 00 e0 ce b1 f0 bf 00 00 00 c0 dd 97 ee bf
       -1.0434101819992065 -0.9560383558273315
000540 00 00 00 60 37 36 15 c0 00 00 00 40 50 97 d9 3f
       -5.302945613861084 0.3998604416847229
000550 00 00 00 60 31 19 da bf 00 00 00 00 0a 97 17 c0
       -0.40778765082359314 -5.897499084472656
000560 00 00 00 40 e7 54 f2 bf 00 00 00 40 41 ab f0 bf
       -1.145728349685669 -1.0418102741241455
000570 00 00 00 40 d9 7f ff 3f 00 00 00 00 74 b1 f0 bf
       1.9687130451202393 -1.0433235168457031
000580 00 00 00 c0 73 97 ee bf 00 00 00 60 cb 57 15 c0
       -0.955987811088562 -5.3357367515563965
000590 00 00 00 c0 25 98 d9 3f 00 00 00 20 26 0f da bf
       0.3999113440513611 -0.40717461705207825
0005a0 00 00 00 00 33 38 14 c0 00 00 00 60 b4 96 d4 3f
       -5.054882049560547 0.32169827818870544
0005b0 00 00 00 a0 dd 83 ef bf 00 00 00 80 ad ba ff 3f
       -0.9848468899726868 1.9830756187438965
0005c0 00 00 00 a0 46 0a f0 bf 00 00 00 60 ab 29 f0 bf
       -1.0025087594985962 -1.0101732015609741
0005d0 00 00 00 20 91 d7 1b c0 00 00 00 40 26 c1 da 3f
       -6.960514545440674 0.41803890466690063
0005e0 00 00 00 20 84 a5 da bf 00 00 00 a0 5a 7e 14 c0
       -0.4163523018360138 -5.123392581939697
0005f0 00 00 00 a0 9e 65 d4 3f 00 00 00 20 fc da ef bf
       0.31870236992836 -0.995481550693512
000600 00 00 00 60 a3 96 ff 3f 00 00 00 c0 3d 0d f0 bf
       1.9742769002914429 -1.003232717514038
000610 00 00 00 00 f2 20 f0 bf 00 00 00 60 d2 ba 18 c0
       -1.0080432891845703 -6.182443141937256
000620 00 00 00 80 fc c1 da 3f 00 00 00 80 fe a7 da bf
       0.41808998584747314 -0.41650354862213135
000630 00 00 00 00 25 fb 14 c0 00 00 00 e0 8a d9 d3 3f
       -5.245258331298828 0.31015273928642273
000640 00 00 00 60 4a 30 f0 bf 00 00 00 c0 5a 5d ff 3f
       -1.0117896795272827 1.9602916240692139
000650 00 00 00 20 c2 10 f0 bf 00 00 00 00 57 1d f0 bf
       -1.0040913820266724 -1.0071630477905273
000660 00 00 00 60 5d 4c 16 c0 00 00 00 00 f3 c4 da 3f
       -5.574574947357178 0.4182708263397217
000670 00 00 00 20 66 ab da bf 00 00 00 40 77 2e 14 c0
       -0.41671136021614075 -5.045376777648926
000680 00 00 00 80 0d c5 d4 3f 00 00 00 00 8f 66 ef bf
       0.32452714443206787 -0.981269359588623
000690 00 00 00 40 d5 c7 ff 3f 00 00 00 60 ac 0a f0 bf
       1.9862873554229736 -1.0026057958602905
0006a0 00 00 00 80 be 22 f0 bf 00 00 00 40 22 da 1c c0
       -1.0084824562072754 -7.213021278381348
0006b0 00 00 00 40 f3 c0 da 3f 00 00 00 40 89 a2 da bf
       0.41802674531936646 -0.4161704182624817
0006c0 00 00 00 00 da d6 14 c0 00 00 00 80 47 de d4 3f
       -5.209815979003906 0.32606685161590576
0006d0 00 00 00 e0 2f 0e f0 bf 00 00 00 c0 dd 78 ff 3f
       -1.003463625907898 1.967008352279663
0006e0 00 00 00 00 34 10 f0 bf 00 00 00 e0 9e 1f f0 bf
       -1.0039558410644531 -1.007719874382019
0006f0 00 00 00 60 cf 3e 17 c0 00 00 00 60 5c c1 da 3f
       -5.811337947845459 0.4180518090724945
000700 00 00 00 e0 30 a8 da bf
       -0.4165155589580536
