data/optimization/optimization_full/optimization_T300_N1000/optimization_13_params.npy (npy, 1928 bytes, 1 tensors)

array f8 [5, 5, 9]
-4.866729736328125 -0.29189735651016235 -1.040365219116211 1.9799432754516602 -0.9896199703216553 -1.0083825588226318 -5.402846813201904 0.40795013308525085
-0.3926205039024353 -5.466530799865723 -0.7340749502182007 -1.0994337797164917 1.9299408197402954 -0.9923209547996521 -1.0049751996994019 -4.377405166625977
0.40845954418182373 -0.3933393955230713 -4.761387348175049 -0.20708344876766205 -1.0282286405563354 1.9901810884475708 -0.9890140891075134 -1.0091034173965454
-5.815049648284912 0.4077405333518982 -0.39247819781303406 -4.630089282989502 -0.09737429767847061 -1.006980299949646 2.008286952972412 -0.9878734350204468
-1.010076880455017 -7.243315696716309 0.40760040283203125 -0.3920464515686035 -4.626577377319336 -0.09545303136110306 -1.005462646484375 2.008500576019287
-0.9882522821426392 -1.0104749202728271 -7.356814861297607 0.4075419306755066 -0.39218148589134216 -4.385512351989746 0.37557101249694824 -1.056766390800476
1.9182525873184204 -1.0110141038894653 -0.974959135055542 -6.234248638153076 0.3942914605140686 -0.4056611955165863 -4.387744903564453 0.37014925479888916
-1.0593254566192627 1.9165493249893188 -1.011215090751648 -0.974955677986145 -6.125239849090576 0.3943192958831787 -0.4058327376842499 -4.355173110961914
0.37783104181289673 -1.0503946542739868 1.9247469902038574 -1.0104126930236816 -0.9742895364761353 -6.7993388175964355 0.3941771388053894 -0.4057404696941376
-4.358072757720947 0.37563368678092957 -1.0508805513381958 1.9239246845245361 -1.0105119943618774 -0.9752575755119324 -6.753869533538818 0.3943365514278412
-0.4056611657142639 -4.343397617340088 0.3811528980731964 -1.0446512699127197 1.928478479385376 -1.0107429027557373 -0.9756318926811218 -7.460153579711914
0.3942930996417999 -0.40553805232048035 -4.3542022705078125 -0.7463843822479248 -1.0287069082260132 1.9991767406463623 -0.9929927587509155 -1.0252184867858887
-7.269171237945557 0.4142282009124756 -0.4099659323692322 -4.411068439483643 -0.7761586308479309 -1.0483760833740234 1.9804145097732544 -0.9939476847648621
-1.0240271091461182 -5.813528060913086 0.4141288995742798 -0.4097994267940521 -4.540022850036621 -0.8353004455566406 -1.0880566835403442 1.9495941400527954
-0.9957038760185242 -1.02178955078125 -4.790590286254883 0.41447415947914124 -0.41039109230041504 -4.359702110290527 -0.7495148777961731 -1.0305176973342896
1.9976741075515747 -0.9930742979049683 -1.025132417678833 -7.0406999588012695 0.414032518863678 -0.40973418951034546 -4.447900772094727 -0.7912683486938477
-1.0604311227798462 1.9725040197372437 -0.9945416450500488 -1.0233732461929321 -5.393433094024658 0.41423431038856506 -0.4099704325199127 -5.439698696136475
-0.7107630968093872 -1.042182445526123 1.9765409231185913 -1.03902268409729 -0.9488131403923035 -4.632596015930176 0.402575820684433 -0.40738099813461304
-14.263752937316895 4.744478702545166 -1.00443434715271 2.008192539215088 -1.0364078283309937 -0.9508044123649597 -5.224721908569336 0.402667373418808
-0.4075557291507721 -5.213325023651123 -0.6321502923965454 -0.9932359457015991 2.0170254707336426 -1.0366573333740234 -0.951621413230896 -5.573581695556641
0.4027400314807892 -0.4073265790939331 -5.229241371154785 -0.6408238410949707 -0.9971370100975037 2.0140020847320557 -1.0367259979248047 -0.9512819647789001
-5.479462623596191 0.40245476365089417 -0.40700143575668335 -5.1892218589782715 -0.6181131601333618 -0.9891273379325867 2.0206968784332275 -1.036391258239746
-0.9517568945884705 -5.706103801727295 0.403023362159729 -0.40677955746650696 -4.711066722869873 0.9375818967819214 -1.0414830446243286 2.002567768096924
-1.0149117708206177 -0.9857385158538818 -5.633716106414795 0.4038364589214325 -0.39246976375579834 -6.8741254806518555 1.0310657024383545 -1.1362864971160889
1.9335741996765137 -1.018149971961975 -0.9810583591461182 -3.9540536403656006 0.4041813015937805 -0.39279717206954956 -4.675299167633057 0.932935893535614
-1.0341428518295288 2.008281946182251 -1.0147451162338257 -0.9862338900566101 -5.9521026611328125 0.40391066670417786 -0.3922463059425354 -4.593036651611328
0.9082968831062317 -1.0190504789352417 2.0207982063293457 -1.0138664245605469 -0.9867773056030273 -7.299688339233398 0.4036909341812134 -0.39211004972457886
-4.767687797546387 0.9562597870826721 -1.049384355545044 1.9964056015014648 -1.0152699947357178 -0.9855874180793762 -5.35894250869751 0.4038165211677551
-0.3923323452472687
00000000: 0000 0000 8877 13c0 0000 0040 72ae d2bf
00000010: 0000 0000 56a5 f0bf 0000 0000 d9ad ff3f
00000020: 0000 0080 f7aa efbf 0000 00c0 5522 f0bf
00000030: 0000 00e0 839c 15c0 0000 00e0 da1b da3f
00000040: 0000 00c0 b120 d9bf 0000 0040 badd 15c0
00000050: 0000 00c0 8a7d e7bf 0000 00e0 4797 f1bf
00000060: 0000 00a0 09e1 fe3f 0000 00e0 17c1 efbf
00000070: 0000 00e0 6014 f0bf 0000 0080 7682 11c0
00000080: 0000 0080 3324 da3f 0000 0000 792c d9bf
00000090: 0000 0020 a90b 13c0 0000 00e0 b581 cabf
000000a0: 0000 00e0 9f73 f0bf 0000 0020 c8d7 ff3f
000000b0: 0000 00e0 00a6 efbf 0000 00a0 4925 f0bf
000000c0: 0000 0060 9c42 17c0 0000 00c0 6b18 da3f
000000d0: 0000 00e0 5c1e d9bf 0000 0020 3685 12c0
000000e0: 0000 00a0 85ed b8bf 0000 0060 971c f0bf
000000f0: 0000 00c0 f810 0040 0000 00c0 a89c efbf
00000100: 0000 0060 4629 f0bf 0000 00c0 27f9 1cc0
00000110: 0000 0000 2016 da3f 0000 0000 4a17 d9bf
00000120: 0000 0080 9d81 12c0 0000 0020 9c6f b8bf
00000130: 0000 0000 6016 f0bf 0000 00c0 6811 0040
00000140: 0000 0040 c39f efbf 0000 00c0 e72a f0bf
00000150: 0000 00e0 606d 1dc0 0000 00c0 2a15 da3f
00000160: 0000 0060 8019 d9bf 0000 00c0 c38a 11c0
00000170: 0000 0000 5b09 d83f 0000 00e0 83e8 f0bf
00000180: 0000 00a0 29b1 fe3f 0000 0020 1d2d f0bf
00000190: 0000 0080 dd32 efbf 0000 00e0 deef 18c0
000001a0: 0000 0040 123c d93f 0000 0060 5af6 d9bf
000001b0: 0000 0000 0d8d 11c0 0000 0080 86b0 d73f
000001c0: 0000 0040 fff2 f0bf 0000 00a0 2faa fe3f
000001d0: 0000 00e0 ef2d f0bf 0000 0040 d632 efbf
000001e0: 0000 00e0 3e80 18c0 0000 0000 873c d93f
000001f0: 0000 00e0 29f9 d9bf 0000 0080 b26b 11c0
00000200: 0000 0040 622e d83f 0000 00a0 6ace f0bf
00000210: 0000 0080 c3cb fe3f 0000 0080 a62a f0bf
00000220: 0000 0040 612d efbf 0000 00e0 8532 1bc0
00000230: 0000 00c0 323a d93f 0000 00e0 a6f7 d9bf
00000240: 0000 00a0 aa6e 11c0 0000 00e0 610a d83f
00000250: 0000 0020 68d0 f0bf 0000 0040 65c8 fe3f
00000260: 0000 00a0 0e2b f0bf 0000 0060 4f35 efbf
00000270: 0000 0060 f603 1bc0 0000 0060 cf3c d93f
00000280: 0000 0040 5af6 d9bf 0000 00a0 a35f 11c0
00000290: 0000 0020 cf64 d83f 0000 0040 e4b6 f0bf
000002a0: 0000 0040 0cdb fe3f 0000 00c0 002c f0bf
000002b0: 0000 0060 6038 efbf 0000 0080 32d7 1dc0
000002c0: 0000 0020 193c d93f 0000 00e0 55f4 d9bf
000002d0: 0000 0000 b46a 11c0 0000 0080 61e2 e7bf
000002e0: 0000 0060 9575 f0bf 0000 00c0 a0fc ff3f
000002f0: 0000 00c0 98c6 efbf 0000 0080 4b67 f0bf
00000300: 0000 00a0 a113 1dc0 0000 0000 b782 da3f
00000310: 0000 00c0 e13c dabf 0000 0020 efa4 11c0
00000320: 0000 00a0 4ad6 e8bf 0000 0000 26c6 f0bf
00000330: 0000 0020 c7af ff3f 0000 0060 6bce efbf
00000340: 0000 0040 6a62 f0bf 0000 0080 0d41 17c0
00000350: 0000 0080 1681 da3f 0000 0060 273a dabf
00000360: 0000 00c0 fb28 12c0 0000 0000 c8ba eabf
00000370: 0000 0020 ae68 f1bf 0000 00a0 8931 ff3f
00000380: 0000 0060 cedc efbf 0000 0000 4059 f0bf
00000390: 0000 0080 9029 13c0 0000 00a0 be86 da3f
000003a0: 0000 0000 d943 dabf 0000 00c0 5570 11c0
000003b0: 0000 00a0 06fc e7bf 0000 0020 007d f0bf
000003c0: 0000 0020 79f6 ff3f 0000 00c0 43c7 efbf
000003d0: 0000 0040 f166 f0bf 0000 0040 ad29 1cc0
000003e0: 0000 0040 827f da3f 0000 00c0 1539 dabf
000003f0: 0000 0080 a6ca 11c0 0000 0000 1252 e9bf
00000400: 0000 00a0 86f7 f0bf 0000 0060 608f ff3f
00000410: 0000 0000 49d3 efbf 0000 00a0 bc5f f0bf
00000420: 0000 0020 e092 15c0 0000 00a0 d082 da3f
00000430: 0000 00a0 f43c dabf 0000 0060 40c2 15c0
00000440: 0000 0040 92be e6bf 0000 0080 c7ac f0bf
00000450: 0000 0060 e99f ff3f 0000 0040 d69f f0bf
00000460: 0000 0060 ad5c eebf 0000 0040 c787 12c0
00000470: 0000 0060 cdc3 d93f 0000 00c0 8712 dabf
00000480: 0000 00a0 0a87 2cc0 0000 00a0 58fa 1240
00000490: 0000 00c0 2912 f0bf 0000 0040 c710 0040
000004a0: 0000 0060 2095 f0bf 0000 0060 fd6c eebf
000004b0: 0000 0080 1de6 14c0 0000 0060 4dc5 d93f
000004c0: 0000 00a0 6415 dabf 0000 00e0 71da 14c0
000004d0: 0000 0040 933a e4bf 0000 00c0 96c8 efbf
000004e0: 0000 0040 de22 0040 0000 0000 2696 f0bf
000004f0: 0000 00c0 ae73 eebf 0000 0000 594b 16c0
00000500: 0000 0020 7ec6 d93f 0000 0080 a311 dabf
00000510: 0000 0040 beea 14c0 0000 0000 a181 e4bf
00000520: 0000 00e0 8be8 efbf 0000 0020 ad1c 0040
00000530: 0000 0000 6e96 f0bf 0000 00e0 e670 eebf
00000540: 0000 0040 f8ea 15c0 0000 00a0 d1c1 d93f
00000550: 0000 00c0 4f0c dabf 0000 0060 c3c1 14c0
00000560: 0000 0040 95c7 e3bf 0000 0060 eea6 efbf
00000570: 0000 0020 632a 0040 0000 0000 0f95 f0bf
00000580: 0000 00e0 ca74 eebf 0000 00e0 0cd3 16c0
00000590: 0000 0080 22cb d93f 0000 0020 ad08 dabf
000005a0: 0000 00e0 21d8 12c0 0000 00c0 ab00 ee3f
000005b0: 0000 0020 eaa9 f0bf 0000 0040 4205 0040
000005c0: 0000 0020 143d f0bf 0000 0080 2b8b efbf
000005d0: 0000 00e0 ec88 16c0 0000 00e0 74d8 d93f
000005e0: 0000 0080 391e d9bf 0000 00c0 1a7f 1bc0
000005f0: 0000 00c0 3e7f f03f 0000 00c0 3a2e f2bf
00000600: 0000 0080 ebef fe3f 0000 00a0 574a f0bf
00000610: 0000 0080 d464 efbf 0000 00e0 e6a1 0fc0
00000620: 0000 0040 1bde d93f 0000 00c0 9623 d9bf
00000630: 0000 00a0 81b3 12c0 0000 0060 9cda ed3f
00000640: 0000 0060 d98b f0bf 0000 0020 f610 0040
00000650: 0000 0060 653c f0bf 0000 0060 3a8f efbf
00000660: 0000 0000 f4ce 17c0 0000 0020 acd9 d93f
00000670: 0000 0040 901a d9bf 0000 0000 455f 12c0
00000680: 0000 00a0 c410 ed3f 0000 00e0 074e f0bf
00000690: 0000 0040 982a 0040 0000 0000 cc38 f0bf
000006a0: 0000 0000 ae93 efbf 0000 0080 e132 1dc0
000006b0: 0000 0080 12d6 d93f 0000 00c0 5418 d9bf
000006c0: 0000 00c0 1c12 13c0 0000 0020 ae99 ee3f
000006d0: 0000 0040 47ca f0bf 0000 0000 47f1 ff3f
000006e0: 0000 00c0 8b3e f0bf 0000 00a0 ee89 efbf
000006f0: 0000 00a0 8e6f 15c0 0000 0040 21d8 d93f
00000700: 0000 0020 f91b d9bf
