data/optimization/optimization_partial/optimization_SGD_N100_T300/optimization_13_params.npy (npy, 528 bytes, 1 tensors)

array f8 [5, 5, 2]
-0.9731695055961609 1.9606841802597046 -0.9615076780319214 1.9505695104599 -0.9751054644584656 1.964977741241455 -0.974261462688446 1.964917778968811
-0.9691261649131775 1.9585126638412476 -1.5384902954101562 2.6573846340179443 -1.5166908502578735 2.671968460083008 -1.5529295206069946 2.665435552597046
-1.546403408050537 2.6520018577575684 -1.5368691682815552 2.668978214263916 -1.0321013927459717 2.0838167667388916 -1.0332682132720947 2.078676462173462
-1.0275788307189941 2.0867700576782227 -1.0291236639022827 2.0883796215057373 -1.0133726596832275 2.0865085124969482 -0.9183919429779053 1.9531677961349487
-0.9193453192710876 1.949989914894104 -0.9159924983978271 1.9504786729812622 -0.9354820847511292 1.952810287475586 -0.9192469716072083 1.9530794620513916
-0.9738118052482605 1.9786087274551392 -0.9762583374977112 1.9812085628509521 -0.9705787897109985 1.978249430656433 -0.9731895327568054 1.9783974885940552
-0.974736750125885 1.9794771671295166
00000000: 0000 0060 3424 efbf 0000 0060 f65e ff3f
00000010: 0000 00c0 abc4 eebf 0000 0060 8835 ff3f
00000020: 0000 0060 1034 efbf 0000 0080 8c70 ff3f
00000030: 0000 0060 262d efbf 0000 00a0 4d70 ff3f
00000040: 0000 00e0 1403 efbf 0000 0060 1156 ff3f
00000050: 0000 0000 a89d f8bf 0000 00e0 5242 0540
00000060: 0000 00a0 5d44 f8bf 0000 0000 3160 0540
00000070: 0000 00a0 ccd8 f8bf 0000 00e0 cf52 0540
00000080: 0000 0080 11be f8bf 0000 00c0 4c37 0540
00000090: 0000 0020 0497 f8bf 0000 0040 115a 0540
000000a0: 0000 00c0 7c83 f0bf 0000 0020 a8ab 0040
000000b0: 0000 0040 4488 f0bf 0000 0020 21a1 0040
000000c0: 0000 0080 f670 f0bf 0000 0080 b4b1 0040
000000d0: 0000 0060 4a77 f0bf 0000 0060 00b5 0040
000000e0: 0000 0040 c636 f0bf 0000 0060 2bb1 0040
000000f0: 0000 0080 7763 edbf 0000 00e0 2c40 ff3f
00000100: 0000 00e0 466b edbf 0000 00a0 2833 ff3f
00000110: 0000 0080 cf4f edbf 0000 0020 2935 ff3f
00000120: 0000 0020 78ef edbf 0000 0000 b63e ff3f
00000130: 0000 00a0 786a edbf 0000 0040 d03f ff3f
00000140: 0000 0060 7729 efbf 0000 00a0 61a8 ff3f
00000150: 0000 0020 823d efbf 0000 00c0 07b3 ff3f
00000160: 0000 0040 fb0e efbf 0000 00e0 e8a6 ff3f
00000170: 0000 0060 5e24 efbf 0000 0020 84a7 ff3f
00000180: 0000 0020 0b31 efbf 0000 0040 f0ab ff3f
