data/optimization/optimization_partial/optimization_SGD_N100_T300/optimization_7_params.npy (npy, 528 bytes, 1 tensors)

array f8 [5, 5, 2]
-0.9644668102264404 2.0051374435424805 -0.9649924635887146 2.004784107208252 -0.9623784422874451 2.0083296298980713 -0.9621070623397827 2.0086326599121094
-0.9657501578330994 2.0074241161346436 -0.9173787236213684 2.302828311920166 -0.9041873812675476 2.3083407878875732 -0.9071354866027832 2.3077375888824463
-0.9114407896995544 2.3018462657928467 -0.903950572013855 2.293898582458496 -1.0383789539337158 2.008100748062134 -1.0365815162658691 2.008110284805298
-1.034152865409851 2.007681131362915 -1.0389257669448853 2.0073978900909424 -1.0332493782043457 2.0074141025543213 -0.9425658583641052 1.8034346103668213
-0.9387944340705872 1.801353931427002 -0.9399784207344055 1.8047617673873901 -0.9388228058815002 1.801218032836914 -0.9401599764823914 1.8057222366333008
-1.0258729457855225 1.9339944124221802 -1.0274238586425781 1.9337626695632935 -1.0181187391281128 1.936303973197937 -1.0207608938217163 1.936211109161377
-1.022457480430603 1.9342052936553955
00000000: 0000 0080 e9dc eebf 0000 0080 850a 0040
00000010: 0000 00e0 37e1 eebf 0000 0040 cc09 0040
00000020: 0000 00e0 cdcb eebf 0000 0020 0f11 0040
00000030: 0000 00c0 94c9 eebf 0000 0000 ae11 0040
00000040: 0000 00e0 6ce7 eebf 0000 0060 340f 0040
00000050: 0000 00a0 2a5b edbf 0000 0040 316c 0240
00000060: 0000 0060 1aef ecbf 0000 0060 7b77 0240
00000070: 0000 0000 4107 edbf 0000 0020 3f76 0240
00000080: 0000 00e0 852a edbf 0000 0060 2e6a 0240
00000090: 0000 00c0 29ed ecbf 0000 0080 e759 0240
000000a0: 0000 0040 339d f0bf 0000 0020 9710 0040
000000b0: 0000 0080 d695 f0bf 0000 0020 9c10 0040
000000c0: 0000 00e0 e38b f0bf 0000 0020 bb0f 0040
000000d0: 0000 00a0 709f f0bf 0000 00a0 260f 0040
000000e0: 0000 0080 3088 f0bf 0000 0020 2f0f 0040
000000f0: 0000 00e0 7f29 eebf 0000 0040 deda fc3f
00000100: 0000 00a0 9a0a eebf 0000 0080 58d2 fc3f
00000110: 0000 00a0 4d14 eebf 0000 00e0 4de0 fc3f
00000120: 0000 0020 d60a eebf 0000 0000 cad1 fc3f
00000130: 0000 0060 ca15 eebf 0000 0000 3de4 fc3f
00000140: 0000 00c0 f969 f0bf 0000 0020 a4f1 fe3f
00000150: 0000 0000 5470 f0bf 0000 0020 b1f0 fe3f
00000160: 0000 00e0 364a f0bf 0000 00e0 19fb fe3f
00000170: 0000 0060 0955 f0bf 0000 0080 b8fa fe3f
00000180: 0000 0060 fc5b f0bf 0000 0040 81f2 fe3f
