data/optimization/optimization_partial/optimization_SGD_N100_T300/optimization_10_params.npy (npy, 528 bytes, 1 tensors)

array f8 [5, 5, 2]
-1.128044605255127 2.1091198921203613 -1.1275205612182617 2.1141979694366455 -1.1459420919418335 2.1090550422668457 -1.1304576396942139 2.1166751384735107
-1.1506693363189697 2.1069345474243164 -0.9412049651145935 1.737070083618164 -0.9390937685966492 1.7328417301177979 -0.9406129717826843 1.7371323108673096
-0.937615692615509 1.7422689199447632 -0.9318063855171204 1.7341570854187012 -1.0370171070098877 2.3103182315826416 -1.052140712738037 2.3148841857910156
-1.0408047437667847 2.3193178176879883 -1.0426942110061646 2.3132290840148926 -1.045973777770996 2.313481092453003 -0.9303080439567566 1.9047249555587769
-0.9194273352622986 1.9019320011138916 -0.9287199974060059 1.902830958366394 -0.9243449568748474 1.9028058052062988 -0.921329915523529 1.9042030572891235
-1.0887292623519897 2.0716068744659424 -1.0829026699066162 2.0728847980499268 -1.0964977741241455 2.078481912612915 -1.08994722366333 2.07059907913208
-1.0858675241470337 2.0755455493927
00000000: 0000 0080 780c f2bf 0000 0040 7adf 0040
00000010: 0000 0000 530a f2bf 0000 00a0 e0e9 0040
00000020: 0000 0060 c755 f2bf 0000 0040 58df 0040
00000030: 0000 00c0 5a16 f2bf 0000 0060 f3ee 0040
00000040: 0000 0040 2469 f2bf 0000 0080 00db 0040
00000050: 0000 00e0 591e eebf 0000 0000 0acb fb3f
00000060: 0000 0060 0e0d eebf 0000 0040 b8b9 fb3f
00000070: 0000 0060 8019 eebf 0000 0040 4bcb fb3f
00000080: 0000 00a0 f200 eebf 0000 0060 55e0 fb3f
00000090: 0000 00a0 5bd1 edbf 0000 0080 1bbf fb3f
000000a0: 0000 0040 9f97 f0bf 0000 0020 887b 0240
000000b0: 0000 0080 91d5 f0bf 0000 0000 e284 0240
000000c0: 0000 00e0 22a7 f0bf 0000 0080 f68d 0240
000000d0: 0000 0020 e0ae f0bf 0000 0040 7e81 0240
000000e0: 0000 0000 4fbc f0bf 0000 0060 0282 0240
000000f0: 0000 0060 15c5 edbf 0000 00e0 c079 fe3f
00000100: 0000 00e0 f26b edbf 0000 0040 506e fe3f
00000110: 0000 0000 13b8 edbf 0000 00e0 fe71 fe3f
00000120: 0000 00e0 3b94 edbf 0000 0080 e471 fe3f
00000130: 0000 00e0 887b edbf 0000 00a0 9d77 fe3f
00000140: 0000 0060 6f6b f1bf 0000 00a0 a692 0040
00000150: 0000 00c0 9153 f1bf 0000 00a0 4495 0040
00000160: 0000 0040 418b f1bf 0000 0020 bba0 0040
00000170: 0000 0080 6c70 f1bf 0000 0040 9690 0040
00000180: 0000 00a0 b65f f1bf 0000 00a0 b79a 0040
