data/optimization/optimization_partial/optimization_SGD_N100_T300/optimization_5_params.npy (npy, 528 bytes, 1 tensors)

array f8 [5, 5, 2]
-1.0898197889328003 1.9052814245224 -1.082743525505066 1.9011638164520264 -1.0810829401016235 1.912545084953308 -1.089016318321228 1.905402421951294
-1.0676827430725098 1.909065842628479 -0.9994430541992188 1.775936245918274 -0.9961597323417664 1.777854323387146 -1.0034419298171997 1.7757216691970825
-1.0026050806045532 1.780814290046692 -1.0148223638534546 1.777821660041809 -0.9409607648849487 2.0887255668640137 -0.9354025721549988 2.090789556503296
-0.9503740668296814 2.0842039585113525 -0.940677285194397 2.0885848999023438 -0.9365211725234985 2.0854551792144775 -1.3026854991912842 2.6761043071746826
-1.2865121364593506 2.711047887802124 -1.2209163904190063 2.6871988773345947 -1.2572755813598633 2.7253952026367188 -1.2847919464111328 2.7248098850250244
-0.9065054655075073 2.048067092895508 -0.9042701125144958 2.0520355701446533 -0.9114965796470642 2.0488221645355225 -0.9057498574256897 2.047966241836548
-0.9123565554618835 2.047321319580078
00000000: 0000 00e0 e66f f1bf 0000 0060 087c fe3f
00000010: 0000 00e0 ea52 f1bf 0000 00c0 2a6b fe3f
00000020: 0000 00a0 1d4c f1bf 0000 00e0 c899 fe3f
00000030: 0000 0060 9c6c f1bf 0000 0040 877c fe3f
00000040: 0000 0080 3a15 f1bf 0000 00a0 888b fe3f
00000050: 0000 0000 70fb efbf 0000 0020 3c6a fc3f
00000060: 0000 0060 8ae0 efbf 0000 0060 1772 fc3f
00000070: 0000 0020 190e f0bf 0000 0020 5b69 fc3f
00000080: 0000 00a0 ab0a f0bf 0000 0020 377e fc3f
00000090: 0000 0060 b63c f0bf 0000 0020 f571 fc3f
000000a0: 0000 00c0 591c eebf 0000 00c0 b5b5 0040
000000b0: 0000 0060 d1ee edbf 0000 00e0 efb9 0040
000000c0: 0000 00e0 7669 eebf 0000 0020 73ac 0040
000000d0: 0000 0040 071a eebf 0000 0000 6cb5 0040
000000e0: 0000 0040 fbf7 edbf 0000 0020 03af 0040
000000f0: 0000 00c0 ccd7 f4bf 0000 0060 a968 0540
00000100: 0000 00c0 8d95 f4bf 0000 00e0 39b0 0540
00000110: 0000 00a0 df88 f3bf 0000 0020 627f 0540
00000120: 0000 0000 cd1d f4bf 0000 0000 9ccd 0540
00000130: 0000 0000 828e f4bf 0000 0020 69cc 0540
00000140: 0000 00c0 1702 edbf 0000 0000 7162 0040
00000150: 0000 00e0 c7ef ecbf 0000 00a0 916a 0040
00000160: 0000 00e0 fa2a edbf 0000 00e0 fc63 0040
00000170: 0000 0020 e7fb ecbf 0000 0020 3c62 0040
00000180: 0000 0060 0632 edbf 0000 0000 ea60 0040
